K2_best_residual_mlp_model.pth (torch, 685461 bytes, 24 tensors)

entry.weight f4 [256, 11]
000000 41 ee bd be be 0b 86 3d 6b e4 f6 3e 0c 00 69 3d
       -0.37095836 0.065452084 0.48221144 0.05688481
000010 8e c3 fa 3d a0 ac f8 3d d1 aa 84 bd f4 ff 8f be
       0.1224433 0.121423006 -0.06477893 -0.28124964
000020 e9 c9 8e 3b f9 d8 ec 3d 2e 1e 0d be 65 2e 3f 3e
       0.0043575657 0.11564822 -0.13781044 0.18670042
000030 3b a6 1d be 74 5e 35 3e b3 0e b1 bd 33 f8 44 be
       -0.15395443 0.17711812 -0.08645382 -0.19235305
000040 5d 56 6e 3d 24 bf d4 3e 5e 5f 01 be d2 ae 0a be
       0.05818783 0.4155208 -0.12634036 -0.13543251
000050 52 1a 07 be 61 10 8d 3e 54 c8 ab be 9e a4 ba 3d
       -0.13193634 0.2755156 -0.33551276 0.091134295
000060 7b 38 8f 3e 71 fa 8e 3d 88 22 4d 3b ea ab c7 3d
       0.2797278 0.06981362 0.00313011 0.09749587
000070 a1 cd d6 3e ae 9a c9 be 32 a4 03 3e 54 2c 84 3e
       0.41953757 -0.39375824 0.12855604 0.2581507
000080 8b cd 24 be 36 d0 04 3e 98 7e 0c 3e 33 b7 4f 3d
       -0.16094033 0.12970051 0.13720167 0.05071182
000090 d5 30 f3 3d cb f4 3f 3d 0b 9e d5 bb f4 b3 2d 3e
       0.11874548 0.046864312 -0.0065190843 0.16963178
0000a0 cd 7b 8f 3e ac ca 1f bd 56 f9 bb bf 35 26 20 be
       0.2802414 -0.039011642 -1.4685466 -0.15639575
0000b0 87 f6 a9 3e 39 51 10 3e 4a a1 2d 3f e7 b9 86 be
       0.33195898 0.14093484 0.6782423 -0.26313707
0000c0 ec 6b e1 3e 80 94 83 be fa 7f 03 bd 17 d0 bd be
       0.4402765 -0.25699234 -0.03210447 -0.37072822
0000d0 92 09 5a be 8e 0a d1 3d 65 28 e9 bd c4 53 67 3c
       -0.21292713 0.10207091 -0.11384658 0.014119092
0000e0 d0 68 42 3e 08 88 9d ba 43 39 3f 3d d1 1e 3b bf
       0.18985295 -0.001201869 0.04668547 -0.730939
0000f0 ce 64 a7 3e 3f 9a 10 be 07 2c 5c 3e 2d ae ea bb
       0.32694095 -0.1412134 0.2150117 -0.0071618767
000100 df fa 16 3e 61 ec bb be 1c 27 84 3e fd a0 d6 bd
       0.14744137 -0.3670378 0.25811088 -0.10479925
000110 80 fe 2e be 45 17 04 be ae f0 8f 3e 97 66 00 bf
       -0.17089272 -0.12899502 0.28113312 -0.5015654
000120 08 fb 9b 3c e4 5c 80 be 59 23 65 bd e8 be f2 3e
       0.0190406 -0.2507087 -0.055941913 0.47411275
000130 7f 8e af bd e7 27 12 be 79 d5 c8 bb 48 63 63 3d
       -0.08572101 -0.14273034 -0.0061289635 0.055514604
000140 fc 55 eb bd 20 ca 64 bf 02 02 eb bd d8 5d 50 be
       -0.114910096 -0.8937092 -0.11474992 -0.20348299
000150 e4 ed a2 3e 6b 29 a2 be 56 90 0a 3f ca 12 06 3b
       0.3182212 -0.31672224 0.5412649 0.0020457976
000160 9e 6f b6 3d ec de 59 bd 95 89 24 bd 16 5f 41 bd
       0.08908008 -0.05319111 -0.04017027 -0.04720982
000170 55 4b d3 3e 1e ac e5 bd ff 08 15 3e b7 28 ab 3d
       0.4126841 -0.112144694 0.14554213 0.08357375
000180 67 f2 7c 3d f9 5a a2 bd ae 99 18 3e 7c c1 31 be
       0.06175461 -0.07927508 0.14902374 -0.17358965
000190 b2 8d a7 3d f3 14 67 bd d7 5b bc 3e 22 86 ca be
       0.08181323 -0.056416463 0.36788818 -0.3955546
0001a0 0e 9b d2 3e 27 24 54 bd 69 7e b2 3d bd e8 a5 3e
       0.41133922 -0.05179229 0.08715517 0.32404128
0001b0 b0 28 55 bf 7f 51 24 3d 00 98 b2 3e 8c e2 46 be
       -0.8326521 0.040116783 0.34881592 -0.19422358
0001c0 c2 d8 c8 3e 57 c0 8b be 52 ce 08 3f ef a8 ab be
       0.39227873 -0.2729518 0.5343982 -0.33527324
0001d0 b7 e0 27 be 67 9d 02 3e 11 d6 27 be 2a c8 e1 3a
       -0.16394316 0.12755357 -0.16390254 0.0017225791
0001e0 8e d9 fc bd 30 6e 82 3e d5 67 a5 3d 24 4d 0a 3e
       -0.12346183 0.2547469 0.08076445 0.1350599
0001f0 b9 35 5d 3e 9c c6 0f 3e 8d e6 b7 be 7e df 8f 3d
       0.21602525 0.14040607 -0.35918084 0.070250496
000200 07 aa d2 3e b8 22 ab 3d 8b d5 c5 bf 1c 3d 2b 3e
       0.41145346 0.083562315 -1.5455793 0.1672253
000210 25 be b5 3e de b7 ad be 67 53 83 bd ce e3 a0 bc
       0.3549663 -0.33929342 -0.06412392 -0.019639876
000220 31 74 b8 bd bc 83 6a 3e 3c 02 42 3f 01 3f 1c be
       -0.09006537 0.22901815 0.7578466 -0.15258409
000230 13 95 ad bd 21 22 11 3c 4b 9f 80 3d f5 fc 0b bd
       -0.08475699 0.008858235 0.06280383 -0.034176785
000240 f9 5a bc bc 43 5e 27 3f 50 25 94 3e 72 d3 66 3e
       -0.022992598 0.65378207 0.28934717 0.22541597
000250 d4 3d 3f be 93 ca 67 bd 8e 37 99 bb 8f 69 05 3f
       -0.1867593 -0.056589674 -0.004675812 0.52114195
000260 33 2d 0c be b6 37 ba 3d b2 6e eb 3e f4 20 60 be
       -0.13689117 0.09092657 0.4598289 -0.2188757
000270 6b df 70 3e 5e 52 80 be aa d6 ef be 10 60 0d bf
       0.23522727 -0.2506284 -0.46843463 -0.55224705
000280 ac 34 97 be 6e 9d a1 bb 54 e4 39 be cd 7b 22 3e
       -0.29532373 -0.004932097 -0.18153507 0.15867539
000290 a5 ac 28 be 46 00 04 be 34 9e 32 3e 70 97 26 bc
       -0.16472109 -0.1289073 0.17443162 -0.010167941
0002a0 e0 b4 39 be 24 55 bd be 83 00 ca 3d af ff 04 bd
       -0.18135405 -0.3697902 0.09863379 -0.0324704
0002b0 54 38 b8 3d c3 1a b6 3e ee a6 69 3e a6 7b c4 be
       0.08995119 0.35567293 0.22817585 -0.38375586
0002c0 cd 0d 6b 3e 89 ff 6c 3d f2 be cf 3e e0 f4 12 be
       0.22954483 0.057860885 0.40575367 -0.14351225
0002d0 73 c1 c3 3e dc 7d aa be 02 7e ae 3e fd 87 9b be
       0.38233528 -0.33299148 0.3408051 -0.30377188
0002e0 52 1e 67 3e 62 6f 48 3e 1d 6a cf 3d 9a 3e 17 3e
       0.2257016 0.19573739 0.101276614 0.14769974
0002f0 f2 b9 61 3d 1a 28 cb 3e d7 f1 0f be 41 30 c4 3c
       0.055108972 0.39679033 -0.14057098 0.02394879
000300 f5 b8 92 3d ed 95 35 3e a7 6d 2f 3e 10 c7 5f be
       0.07164184 0.17732973 0.17131673 -0.2185328
000310 d0 c2 a5 3e b5 5f 56 bc 26 ea 65 3e 37 83 a7 3d
       0.32375193 -0.013084342 0.22452602 0.08179324
000320 5d 5c 64 3e c5 eb a8 bd da b7 9d 3d c3 03 b5 be
       0.22300859 -0.082480945 0.077010825 -0.35354432
000330 3a 6e 13 3e b2 9b 15 3e d0 7c 9d 3d 09 ba 49 bf
       0.14397517 0.14610174 0.07689822 -0.7879949
000340 8f 44 46 3e 8d a1 37 bc 16 c7 39 3e 3f f5 da 3e
       0.1936209 -0.01120795 0.18142352 0.42765233
000350 88 f1 28 be c0 f6 7a bf 6f be be bd e4 88 52 be
       -0.16498387 -0.9803276 -0.09313666 -0.20560032
000360 6b f9 cd 3e 8d b6 69 be fa 62 d2 3e fb 91 27 be
       0.40229353 -0.22823544 0.41091138 -0.16364281
000370 fc 6f 31 3d 4e 68 a4 be 69 f7 ce be d7 d1 35 3d
       0.043319687 -0.32110828 -0.40423134 0.044389572
000380 a6 53 26 3e c7 7f e7 3d b9 c5 b4 3d b2 d5 c9 bd
       0.16242847 0.113036685 0.08826775 -0.09855212
000390 93 c4 5d 3b 88 40 a6 bd ec 30 07 be b4 39 9c be
       0.0033839091 -0.08117777 -0.13202256 -0.30512774
0003a0 d8 6c 70 3e c6 74 78 bd ac 04 49 be 35 5c cd be
       0.2347902 -0.06065824 -0.19630688 -0.4010941
0003b0 55 91 7a be 7f 62 96 be 5c 47 c6 3d b0 08 c5 bd
       -0.24469502 -0.29372022 0.096815795 -0.09620798
0003c0 93 e3 1b 3e 9a 55 0c 3c 4f 57 21 bc 38 46 3b be
       0.15223531 0.008565331 -0.009847476 -0.18288505
0003d0 70 c9 2c 3f 66 79 44 3d 0c ec d5 bb b1 3c 76 be
       0.6749487 0.047967337 -0.006528383 -0.2404659
0003e0 9a 96 90 3b 5b 1c b0 be 38 4b 3e 3e 88 d4 e5 3d
       0.0044124844 -0.34396634 0.18583381 0.11222178
0003f0 53 8e 7c 3e f4 24 26 bd 71 d3 05 be da d3 9b 3e
       0.24663667 -0.040562585 -0.1306894 0.30435067

entry.bias f4 [256]
000000 7b 74 57 3e e9 40 4b 3e 43 45 4e be 1e 25 ad 3d
       0.21040528 0.1984898 -0.20143609 0.08454345
000010 ba a0 cf 3d f0 1a de bd 8e 3b e3 be f9 ba 06 be
       0.10138078 -0.10844982 -0.44381374 -0.13157262
000020 13 c3 50 be ab 86 e2 be 70 65 37 be 11 49 43 3e
       -0.20386915 -0.44243369 -0.17909789 0.19070841
000030 84 c2 16 3e 33 2b a9 3e 4a 3b c9 be 90 78 b9 bc
       0.1472264 0.3304077 -0.39303046 -0.022640496
000040 bb 84 73 3e c5 93 d1 bd 2a 9d ab bd 2e c0 86 bd
       0.23781101 -0.10233263 -0.08379586 -0.06579624
000050 7d 54 7f be 67 c5 b6 be 93 84 ab 3e 17 97 b3 be
       -0.24934573 -0.3569748 0.33499584 -0.3507621
000060 11 f1 a2 3e 1b bf f8 3d a7 33 91 be da 6b 14 bd
       0.31824544 0.121458255 -0.2835972 -0.036235668
000070 86 56 e5 bc 7d 2d ac be 6b d2 d8 3c 6b 78 be 3b
       -0.02799536 -0.33628455 0.026467523 0.005812695
000080 6a 45 9e 3e bb 72 56 be 3c ee 39 be b1 64 14 3e
       0.30912334 -0.20942204 -0.18157285 0.14491536
000090 d9 cf f2 bc e6 4f 5c 3e 1b 26 26 3e f4 f7 6d be
       -0.029640125 0.21514854 0.16225474 -0.23239118
0000a0 8b d5 e5 3d 0a a4 80 be b2 2a 84 be 77 68 81 be
       0.11222371 -0.25125152 -0.25813824 -0.25275013
0000b0 c4 9b 53 3e c3 a4 cc 3d c6 8a 28 3e d4 be 0d be
       0.20664889 0.09992363 0.16459188 -0.13842326
0000c0 d9 b5 9a bd bb 99 9b bc f4 12 07 be 1c 90 9c be
       -0.07554216 -0.018994203 -0.13190824 -0.30578697
0000d0 a8 d4 c3 be 9e e6 20 be 6f b4 9b bd c1 af cb 3d
       -0.3824818 -0.15712973 -0.07602774 0.09945632
0000e0 6e d4 02 3e 5e df 06 be 44 ac c6 3e f7 a3 c2 be
       0.12776348 -0.13171145 0.38803303 -0.3801572
0000f0 fc ed 8c 3c aa 09 d1 be ca ef a1 be d3 04 f4 bd
       0.017203324 -0.40827686 -0.31628257 -0.11914983
000100 16 f3 e7 bd 5f 2e 56 3e 02 ec 9d bd ba 61 3f be
       -0.11325662 0.20916127 -0.077110305 -0.18689623
000110 d7 fc ed 3c 8f 2e 84 be db b3 a2 bc 77 c5 bc be
       0.029051227 -0.2581677 -0.019861152 -0.36869404
000120 73 55 ce be 3e 9d 4c 3e e5 f6 b3 3e de 50 53 3d
       -0.40299568 0.19981858 0.35149303 0.051590793
000130 b1 a4 f1 3c 3d 00 3b 3e 8d cc d6 be 89 19 89 be
       0.029497476 0.1826181 -0.41952935 -0.26777294
000140 51 70 a7 be b9 de 23 be 5f bf 60 3b 80 1b a5 3d
       -0.32702878 -0.1600293 0.0034293754 0.08061886
000150 eb 4f 76 bd 0c 5e 19 bd dd 4d 85 3d 72 c1 53 b9
       -0.06013481 -0.037443206 0.06508992 -0.00020194592
000160 e9 a0 67 be d7 ff d3 bd 18 58 4b be c5 a4 67 3e
       -0.22619976 -0.10351532 -0.19857824 0.22621448
000170 24 f1 38 3e 95 1b bc be e7 20 04 3d b4 af 2d be
       0.18060738 -0.36739793 0.03225794 -0.16961557
000180 e4 69 9c be dd e8 97 3d 53 b5 a8 3d c7 e3 35 bd
       -0.30549538 0.07417462 0.0823771 -0.04440668
000190 d2 66 67 be 4e 19 2d be 32 e3 e4 be 1d 1d 04 be
       -0.22597817 -0.16904184 -0.44704586 -0.12901731
0001a0 9b ef 96 bd 9e fc 10 be 91 8b 27 be bc d3 38 be
       -0.0736992 -0.14158866 -0.16361834 -0.1804952
0001b0 a2 61 74 3d d2 2f 19 3d f9 87 93 3d d0 fb b8 be
       0.059663422 0.03739912 0.07203669 -0.36129618
0001c0 f9 02 22 be ff 5e c4 3d 22 1c 61 be 8b 2e 9d be
       -0.15821446 0.095884316 -0.21983388 -0.30699572
0001d0 bf 58 9e 3e 9c 84 17 be f4 7f b9 bd d5 80 90 be
       0.30927083 -0.1479668 -0.09057608 -0.2822329
0001e0 17 d7 3f be 61 55 1a bd ce 49 89 be c2 0c 79 3c
       -0.18734394 -0.03767908 -0.2681412 0.015200796
0001f0 d8 3d d0 bd b7 71 a4 be fb 67 a7 be 66 ac 15 3e
       -0.10168046 -0.32118008 -0.32696518 0.14616546
000200 6d 15 5e be be 5a 01 bc bf 7f 13 be c7 a1 14 3e
       -0.21687861 -0.00789517 -0.144042 0.14514838
000210 35 45 ca be 2f f3 05 be ef 02 9e be 61 cb 90 be
       -0.39505926 -0.13081048 -0.30861613 -0.28280166
000220 57 a2 94 3b 69 d0 d9 be 24 34 0b bd 60 44 b6 be
       0.004535954 -0.42541817 -0.033985272 -0.3559904
000230 d4 f3 16 be 73 91 b3 bd c3 3d 05 3d 91 73 2a be
       -0.1474145 -0.087679766 0.032529604 -0.16645648
000240 68 b2 3b 3d a9 9f 77 3e 6b b9 7e be 9b 20 e9 3d
       0.04582444 0.24182 -0.24875419 0.11383172
000250 f8 31 21 be 83 35 2e bd eb 0d 52 be 4c 96 fa bd
       -0.15741718 -0.0425315 -0.20513122 -0.12235698
000260 b8 71 d6 3c b4 10 58 be a7 c4 e7 bd 2e 99 f8 3d
       0.026177272 -0.21100122 -0.11316805 0.12138592
000270 ac 12 4b be 4b a7 16 be 69 54 1f 3e 18 55 a8 be
       -0.19831342 -0.14712255 0.15559544 -0.3287742
000280 70 ed 8e 3e 7c c1 de 3c 6a 63 95 be 0c a7 85 3e
       0.27915525 0.02719187 -0.2917741 0.2610401
000290 b8 8d a3 bd 5d 10 bb be b0 56 ac 3d a3 7c 86 be
       -0.07986015 -0.36535922 0.08414972 -0.26266965
0002a0 a8 77 a3 be 3c f6 f0 bd eb 56 ca 3e da c6 da 3d
       -0.31927228 -0.117657155 0.39519438 0.10682459
0002b0 57 e4 25 be 8e f9 db bd 5b e1 55 3e 72 fe ac be
       -0.16200386 -0.10740958 0.20886748 -0.33787876
0002c0 65 6a 2b be bd f7 ce 3d e7 ce 19 be d5 19 cd bd
       -0.16739805 0.10105846 -0.15020333 -0.10014693
0002d0 c0 b2 45 3e 60 a0 e5 bc aa e6 8c be 46 eb c8 be
       0.19306469 -0.028030574 -0.27519733 -0.39242
0002e0 72 55 5f 3c 68 48 98 bd b2 78 fd bd 61 10 57 bd
       0.013631212 -0.074356854 -0.123765364 -0.052505855
0002f0 98 f0 02 bc 1b 6e c0 3e f1 f0 91 bd ff 3d 88 3d
       -0.007991932 0.37584004 -0.07126034 0.0665245
000300 be fa c0 3d fa c0 a9 be 3a 32 a1 3a 5e 52 cb 3b
       0.09422825 -0.33155042 0.0012298294 0.0062048873
000310 6c 96 89 bc 41 a0 c9 3c 6e 1e 6a bd d4 70 c7 3d
       -0.01679536 0.024612548 -0.057157926 0.09738317
000320 24 ad c0 3d 94 6b 07 be 3c b0 00 bd b0 13 67 be
       0.09408024 -0.13224632 -0.03141807 -0.22566104
000330 9c 82 05 be 7a dd ee 3d cd d8 75 be ad df ec be
       -0.13038105 0.11663337 -0.24008484 -0.462644
000340 b4 d9 2a 3e 27 e7 d4 bd 66 ea 25 3d d7 67 29 3b
       0.1668461 -0.10395651 0.040506743 0.0025849247
000350 14 da 06 be c1 ce b1 3d da 2e 60 3e f8 23 06 3e
       -0.13169128 0.08682013 0.21892872 0.13099658
000360 e2 dc 52 3e fe eb 61 bd 2c c0 9f be c7 86 14 be
       0.20592073 -0.0551567 -0.31201303 -0.14504538
000370 20 f1 55 be c9 4b 18 be 47 b9 fe 3d 9a 8e a4 bd
       -0.20892763 -0.1487266 0.124376826 -0.080350116
000380 7d 43 63 be ab b6 8e be 7e 59 f9 bc ef 2b 6a 3d
       -0.22193713 -0.2787374 -0.030438181 0.057170805
000390 8c a1 cc be d0 3b 6f 3c ba 5b 85 be a7 7e 8a 3c
       -0.39967 0.014601663 -0.26046544 0.016906096
0003a0 06 f9 a8 3d db 80 13 3e 81 b4 ac 3d 2a 90 14 3d
       0.082506225 0.14404623 0.08432866 0.036270298
0003b0 0d e2 d9 be 03 25 16 be 9c d6 c7 bc 56 08 89 be
       -0.42555276 -0.14662556 -0.024394326 -0.26764172
0003c0 1f 3e 9a be e1 37 b8 bc 11 78 0d 3e eb 98 61 3e
       -0.3012552 -0.022487583 0.13815333 0.2203099
0003d0 23 2e 65 be a6 1b 02 bf 09 b2 6c 3d 80 9d 66 3d
       -0.22380881 -0.5082344 0.057786975 0.056302547
0003e0 5f 90 44 be fe ed 96 bc ff 76 a3 be 33 46 fb 3d
       -0.19195698 -0.01842403 -0.31926724 0.12269249
0003f0 30 45 d6 3d 54 11 83 bd 97 4c f0 bd fe 52 ba 3d
       0.10462415 -0.063997895 -0.11733358 0.09097861

res_block1.fc.weight f4 [256, 256]
000000 6e 88 39 bd 18 96 01 3a 32 93 86 be c8 4a 8a 3e
       -0.045296125 0.0004943325 -0.26284176 0.2701018
000010 bd f7 1a be 58 4e bd bd 1e c0 d4 3d 65 00 e3 3d
       -0.15133567 -0.092434585 0.10388206 0.110840596
000020 9a 1a b8 3c 09 de a6 3d b5 0f 84 3d 65 26 af 3e
       0.022473622 0.081478186 0.064483084 0.3420898
000030 c2 3c aa 3d 03 76 8c 3c ac eb 17 3d ce de 8f 3d
       0.0831237 0.017146116 0.03708999 0.070249185
000040 7b fa 61 bc bb 54 15 3d 46 a8 60 3e f0 09 81 bd
       -0.013792629 0.03645776 0.21939191 -0.063007236
000050 60 3d c6 3d f5 27 04 be 4e 3a 36 be 38 fc 44 3d
       0.09679675 -0.12905867 -0.17795679 0.048092097
000060 6e 33 ab 3c 65 fc 4c 3e e9 a2 07 be 69 3c 3c bd
       0.020898547 0.20018156 -0.13245739 -0.04595605
000070 25 1f 3b be 67 13 41 bd 69 a7 06 3e 34 57 0b 3e
       -0.182736 -0.047137644 0.131498 0.13607484
000080 8f 3e b2 bc dc 4d 2c 3d d1 f9 03 3e 97 9f 47 3d
       -0.021758346 0.04206644 0.12888266 0.04873618
000090 3f c0 19 3e 00 d8 5b be 86 9b e8 bc 71 ee 97 3d
       0.15014742 -0.21469116 -0.028394472 0.07418526
0000a0 08 0b 03 bc 1b b7 3f 3e f0 ed 82 bd a3 eb 4a be
       -0.0079982355 0.18722193 -0.06393039 -0.19816451
0000b0 ce 23 8a 3d 6e 80 f3 3d 1a 6f a6 3d eb 44 df bd
       0.067451105 0.118897304 0.0812666 -0.10901817
0000c0 b2 90 0e bd 5c 6c 6f bd 41 95 3a be 57 8b 9a 3d
       -0.03480596 -0.05845295 -0.18220998 0.07546108
0000d0 28 d5 13 3e 55 2d fb bd 40 3d af 3d 4c d4 88 bd
       0.14436781 -0.12264506 0.085566044 -0.066811174
0000e0 b7 6f ab bc 27 51 fa bc 45 d2 8c bd b1 b0 8c 39
       -0.020927293 -0.030556275 -0.06876043 0.00026834526
0000f0 ef c6 13 3d c4 0b 53 3d 71 99 5a 3e 8b 26 45 3e
       0.03607839 0.051524892 0.21347596 0.19252984
000100 b9 83 7a be fa 3a 2c be 5f 30 13 be 9d cf 64 3e
       -0.2446431 -0.16819373 -0.14373921 0.22344823
000110 ed 1c ab bd fd 34 01 3d 0c 4e 94 bd cd 59 e8 3d
       -0.083551265 0.031544674 -0.07241449 0.11345253
000120 78 4a d4 3c 4a bb c4 3d 4c 3b c7 3a 7d d7 5e 3d
       0.025914416 0.09606035 0.0015200167 0.054404724
000130 3c 60 a4 bd af 50 cf bd 03 ce 56 bd 3d 32 eb 3d
       -0.08026168 -0.10122811 -0.05244256 0.114841916
000140 47 5d 5b 3d 78 d6 78 bd ce 1f ac 3d f9 2f 74 3d
       0.053555753 -0.06075141 0.08404504 0.059616063
000150 63 8a a4 3d 09 f9 02 be e2 10 f9 bc 9b ed c3 bd
       0.08034208 -0.12790312 -0.030403558 -0.09566804
000160 1c e5 eb 3c 2a af 83 bd ae 61 28 3b f7 1a 0a be
       0.028795771 -0.06429894 0.0025692987 -0.13486849
000170 d7 a6 8e bc e1 52 0b be 96 d6 a4 3d 3b 96 ab bd
       -0.01741354 -0.13605835 0.080487415 -0.083782636
000180 69 85 82 bd aa e1 ed 3d 7d 9c 40 be 93 6a b9 bc
       -0.06373102 0.11615308 -0.18809696 -0.022633826
000190 59 33 22 bd ac ea 4f 3e da 52 ad bc 7d 6b f7 bd
       -0.03959975 0.20304364 -0.02115767 -0.12081049
0001a0 ce fd 14 3e 02 5b 63 bd a1 5f 91 bd 6b 5c 0b 3e
       0.14549944 -0.055506714 -0.07098318 0.13609473
0001b0 4a bd 63 be 71 2b 2a 3c d3 cf 27 3e 07 3c ab 3c
       -0.22240177 0.010386334 0.16387872 0.020902647
0001c0 72 95 45 be 64 1d 67 be 80 06 70 bd 0f de a9 3d
       -0.1929529 -0.22569805 -0.05859995 0.082943074
0001d0 fe 50 45 bd 80 60 1e ba e6 83 54 3d df 67 07 3e
       -0.048172943 -0.00060416013 0.0518836 0.13223217
0001e0 5e 14 1c 3e 9c 40 3c be 86 bb 1c be 49 e9 2a 3e
       0.15242144 -0.18384022 -0.1530591 0.16690554
0001f0 57 a5 6b bd ac 24 b1 bd f1 bd 5c be fc 9c 82 bd
       -0.057530727 -0.08649573 -0.21556832 -0.06377599
000200 41 de 32 be c8 ca 47 3e d9 f9 8a ba 70 5d fe bd
       -0.17467596 0.19510949 -0.0010603025 -0.124201655
000210 b7 22 45 be db 15 76 bc 9c 9f bd 3e 6f b1 4a 3d
       -0.19251524 -0.015019859 0.37035835 0.04948562
000220 57 ce d2 3d fc 29 e9 3d 07 25 2f 3b 53 0a 0b be
       0.102932625 0.11384961 0.002672495 -0.13578157
000230 83 ae e0 bd 1d 5c a7 3d 3a 88 db bc ed 4f 0f 38
       -0.109707855 0.08171866 -0.026798356 3.4168293e-05
000240 95 d3 1f be 7d 3b e2 bd b9 88 9f 3e d6 ec cc 3d
       -0.15608056 -0.11046503 0.31159 0.1000611
000250 db c6 b8 bd 8f c9 77 bd 45 8a 85 be b3 01 1c bd
       -0.09022304 -0.060494956 -0.26082054 -0.038087558
000260 3b 79 a0 bd ab 48 e0 3d 33 a8 5b 3d 50 09 9b bd
       -0.07835623 0.1095136 0.053627204 -0.075701356
000270 54 21 db 3d de 61 a9 3e 97 0b 69 3e a2 82 fb 3c
       0.10699716 0.3308248 0.22758327 0.030701939
000280 c7 df 7a be f1 ea 06 3d ec bf 00 3e 64 f6 a0 3e
       -0.24499427 0.0329389 0.12573212 0.3143798
000290 f4 69 e2 bd ae 1f e4 3e 8e d4 54 3c 57 90 ef 3c
       -0.11055365 0.4455542 0.01299013 0.029243631
0002a0 3e 06 d6 bc 4c 97 39 3e b8 01 99 3d 60 f4 b0 3e
       -0.026126023 0.18124121 0.07471031 0.34561443
0002b0 43 3b 01 3d 3b 28 45 bd 02 b3 25 3c ea 78 6a be
       0.031550657 -0.04813407 0.01011348 -0.22897688
0002c0 09 6e 57 bd cd 0b 61 3d 69 b3 d6 3e eb a6 6e 3d
       -0.052595172 0.054942895 0.41933754 0.058264654
0002d0 f9 32 c3 bd 75 31 a9 bd b6 3c 78 be 51 79 06 3e
       -0.09531207 -0.08261386 -0.2424191 0.13132216
0002e0 83 d0 02 3e 3d 4d 19 3e b9 db 9d 3c 08 c4 0c be
       0.12774853 0.1497087 0.019269811 -0.13746655
0002f0 ed 28 08 3e fb 69 b9 3c 73 f8 a5 bd 49 8e 87 3d
       0.13296862 0.022633543 -0.081040286 0.066189356
000300 d0 7f c8 bc 17 49 80 3d 87 18 1a be f2 3f 5b bd
       -0.024475008 0.06263941 -0.15048419 -0.05352778
000310 71 b1 06 3d d4 8f 78 bd 2b c0 ae bc b1 47 f8 3d
       0.032884065 -0.06068404 -0.021331867 0.12123049
000320 f5 83 d3 bd c1 6c 58 be f4 b8 22 3d 47 40 79 be
       -0.10327903 -0.21135236 0.039727166 -0.24340926
000330 46 0a cd 3c 7f bc 30 bc b7 95 75 3b 03 13 0a 3d
       0.025029313 -0.0107871285 0.003747327 0.033709537
000340 df e5 42 bd 05 b1 ce 3c fa 8e 83 3d d9 9f 8e 3e
       -0.047582503 0.025230894 0.06423755 0.2785633
000350 97 f0 42 3e b7 9a 09 bd 5a 69 0c 3e 36 d4 58 3d
       0.1903709 -0.033594813 0.13712063 0.052936755
000360 8c 10 9a bd 7d 44 07 3e 40 9b 26 be 4c 5a c3 3d
       -0.07522687 0.1320972 -0.1627016 0.09538707
000370 a5 db 39 3c c5 93 e2 bd 0a 3c a4 bb 9f 5e db bc
       0.011343871 -0.11063341 -0.00501204 -0.026778517
000380 cc 85 09 be 94 6f 73 bd c4 9a 53 3d f5 9f ea 3d
       -0.13429946 -0.05943258 0.051661268 0.11456291
000390 5b 53 92 bd c2 17 95 be 57 a1 c3 3d e5 8e bb bc
       -0.07144805 -0.29119688 0.095522575 -0.022895286
0003a0 a4 73 53 bd 0d 7d 53 3e af b1 ad 3d 8a 49 9f 3e
       -0.051623955 0.20653172 0.08481156 0.31110793
0003b0 4f d8 ee 3c aa ea 09 3e bc ff f6 3d 37 6b 22 be
       0.029155878 0.13468423 0.12060496 -0.15861212
0003c0 83 56 12 3d 53 bc 35 bc c9 ea 26 bc 17 8b 2e 3c
       0.035727035 -0.011092263 -0.010187813 0.010653279
0003d0 82 86 b9 3c cd c6 7f bc 1f 96 75 3d a1 9f 6f bc
       0.022647146 -0.015611363 0.05995762 -0.014625461
0003e0 27 30 ac 3d b5 53 20 be 0d eb fd bb 0a 52 73 3e
       0.08407622 -0.15656932 -0.0077489675 0.23761764
0003f0 73 16 93 bc 62 bc 7d 3c f2 c8 2b 3e e2 e4 1f be
       -0.01795504 0.0154868085 0.16775873 -0.15614656

res_block1.fc.bias f4 [256]
000000 98 2f 53 3e 31 ae 47 3e 18 82 4e 3e ba 2b 01 3b
       0.20623624 0.19500042 0.20166814 0.00197099
000010 2b 44 25 be 37 70 d6 3c 56 4c 24 3b 79 ae 3f bb
       -0.16139285 0.026176555 0.0025069914 -0.002924828
000020 4f 04 d1 3d 7a 1c 7c 3e 65 32 0d bd 95 34 e3 3d
       0.102059 0.24620238 -0.034471888 0.110940136
000030 59 3a 37 3e a0 be 47 3c 0d 29 08 bd 43 d4 aa be
       0.17893352 0.012191445 -0.033242274 -0.33365068
000040 90 07 45 3e 62 5c 0d 3d 7d ac 29 3e 73 e2 f5 3c
       0.19241166 0.03451193 0.16569705 0.030015206
000050 41 1c 51 3c 1f 94 24 3d 7e 42 c2 3d bd f2 0b 3d
       0.012763084 0.04018032 0.09485339 0.03416704
000060 2d 54 f6 bd 95 ba 53 be dc f2 0d 3d 21 19 10 3d
       -0.12027774 -0.20676644 0.034655437 0.035180215
000070 36 a2 cb 3d 0f 1b 31 3e c1 97 ad be d2 5e b7 3d
       0.09943049 0.17295478 -0.33904842 0.089536324
000080 31 03 a7 bd a2 20 8f bc 27 20 a9 bd 12 87 4c 3d
       -0.081549056 -0.017471615 -0.08258086 0.0499335
000090 f6 68 35 3d dc c9 25 3e da 8a 04 3e b8 81 47 3e
       0.04428955 0.16190284 0.12943593 0.19483078
0000a0 55 dd 34 3e c7 68 31 be ff f7 e6 bb 61 4d 1b bd
       0.17662556 -0.17325126 -0.0070486064 -0.03791559
0000b0 ac c9 09 bd 3f 41 a9 bd cd 9c 45 be 04 09 a1 3d
       -0.033639595 -0.08264398 -0.19298096 0.07863048
0000c0 10 48 5d be 53 dc 32 bd d1 09 34 3e 7c d3 90 bd
       -0.21609521 -0.04366715 0.1758187 -0.070715874
0000d0 fe cb e4 bd 13 19 4f 3e c0 81 79 be b9 f9 69 3d
       -0.11171721 0.20224409 -0.24365902 0.05712292
0000e0 bf e6 22 3c ea d0 75 3e ea f5 89 3d c0 05 20 3d
       0.0099427095 0.24005476 0.067363575 0.039067984
0000f0 f1 1d 02 3c 83 cb 0c 3e e6 43 96 3c 90 61 9c 3d
       0.007941709 0.13749509 0.018342923 0.07635796
000100 65 d4 0b be 7e ab 4d 3d 8c cb 3a 3e a9 a8 5b be
       -0.13655241 0.050212376 0.1824171 -0.21451057
000110 74 5a 68 3c 1a 0d 0f 3d d7 12 02 3e ef ea 33 be
       0.014181722 0.034924604 0.127025 -0.17570089
000120 ef c7 09 3e 8a a3 9a 3d 8b 38 63 bd 0c ca 2c 3e
       0.13455175 0.07550724 -0.055473845 0.1687395
000130 9d 35 34 bd 0d 9f f5 3d 94 73 18 bd d3 f6 ad 3d
       -0.043996442 0.11993227 -0.0372196 0.084943436
000140 31 85 c4 3c 61 40 ed 3d 40 f4 49 3d 5e 61 61 3d
       0.023989292 0.11584545 0.0493052 0.055024497
000150 5d cd 09 3e b0 6e 22 3e b3 21 40 be 71 42 2d 3d
       0.13457246 0.15862536 -0.18762855 0.04229969
000160 f2 d8 01 3e a0 6b 35 bc 8d 08 e4 3d 08 5e 41 3e
       0.12680414 -0.011073023 0.111344434 0.18883526
000170 98 5d 8a be 04 52 b9 bd 31 c5 9c 3c dd eb 83 3d
       -0.2702453 -0.09048846 0.019136997 0.06441472
000180 05 f9 d4 3c c3 56 0d 3d 70 08 36 be 00 ba 01 3d
       0.025997648 0.03450657 -0.17776656 0.031671524
000190 db 94 be bd 3f c0 50 3c a6 86 80 3d 82 07 9b 3d
       -0.09305736 0.012741148 0.06275682 0.075697914
0001a0 f9 55 71 3d 69 39 16 3d 0e 2a 1b 3e e3 e9 85 bc
       0.05891988 0.036675844 0.15152761 -0.016346877
0001b0 af f6 b2 bc 69 66 67 3e 1e 1c 78 bd 7d 84 8a 3d
       -0.021846144 0.2259766 -0.06057369 0.067635514
0001c0 c9 61 15 bd 32 64 bf bd c0 00 57 bc 5d 3b 2d 3e
       -0.03647021 -0.093452826 -0.013122737 0.16917177
0001d0 65 06 fa 3d 18 08 10 3e 41 b5 3d bd 61 a3 11 3d
       0.12208251 0.14065588 -0.046315435 0.0355562
0001e0 bf 8f ac bd 9e 61 8a 3d 79 fe 1e 3e 71 51 37 3d
       -0.08425855 0.067569 0.15526761 0.044755403
0001f0 94 0a 08 be fc b5 ed 3d 5c 0f 84 3d ec 9c bc 3d
       -0.13285285 0.116069764 0.06448242 0.09209618
000200 9c 0f 74 3d 67 03 e0 be 5a a5 5d be 77 91 28 bd
       0.0595852 -0.43752596 -0.21645108 -0.04115435
000210 e7 d9 43 3d 03 2c 15 3d 93 71 0e 3e bd f7 81 3d
       0.04781523 0.036418926 0.13910513 0.063460805
000220 a5 1e 8e 3d 8c 18 d6 3c 24 53 30 3e 20 a0 e7 3d
       0.06939439 0.026134752 0.17219216 0.11309838
000230 a8 21 31 3c 8b 92 e7 3d 8f b8 0f 3e f6 a8 fa 3a
       0.010811247 0.11307248 0.14035247 0.0019123841
000240 ce 86 4f 3e f4 01 d1 3c 9b 79 cc 3d b8 ea 17 3c
       0.20266268 0.025513627 0.09984132 0.00927227
000250 b2 8a fd 3b cc 46 30 3e 28 e7 2c 3e 69 e1 b9 3d
       0.007737481 0.17214507 0.16885054 0.09076197
000260 79 e6 16 3d 10 8e 80 bd a9 9d 5b bd f0 e7 18 3d
       0.03684089 -0.06277096 -0.053617153 0.037330568
000270 60 d4 c1 bd 9f 25 1f 3d 15 a2 ed bd 93 33 03 be
       -0.094643354 0.038854238 -0.1160318 -0.12812643
000280 e2 38 14 3d ec 0a 74 bb 74 18 6f bd d4 65 c3 3c
       0.03618706 -0.0037237955 -0.05837293 0.023852266
000290 44 07 ad 3d 8d c8 b3 3c d1 d6 e4 bc 0d 94 18 bd
       0.084486514 0.021946216 -0.027934464 -0.037250567
0002a0 9c 85 3d be 44 da 2d bd 6c 20 bc 3d b6 ce 63 bd
       -0.18507999 -0.042444482 0.091858715 -0.055617057
0002b0 58 3c 2d 3d d3 65 c3 3d 48 b8 3f 3e fc 4b da 3d
       0.042293876 0.09540906 0.18722641 0.10659024
0002c0 12 bd d0 3c 6d 1f d1 bd bc 72 fc bb 6d d6 bb bd
       0.02548078 -0.10211072 -0.007704107 -0.09171758
0002d0 59 7a 35 bc 92 c8 0a 3e 46 1e 17 3e 93 4b af b9
       -0.011076533 0.13553074 0.14757642 -0.00033434908
0002e0 f3 2c ec 3d ef 42 6f 3d fd e6 e5 3c 3d eb 52 3d
       0.11532011 0.058413442 0.028064245 0.051493872
0002f0 37 00 06 3d b2 58 ef bc 21 8a 8f 3d 0b cd 08 3e
       0.03271505 -0.029217098 0.07008768 0.13359468
000300 72 65 d8 bd 2e 47 35 be fa 01 57 3b ec 5f 0d 3d
       -0.10566224 -0.17702934 0.0032807575 0.034515306
000310 45 9d b6 3c c3 b6 b5 3c 58 9a 85 3d 47 94 90 3d
       0.022291789 0.022181874 0.06523579 0.07059532
000320 53 3c 13 3e a2 b0 f4 3d 10 47 83 3e 9e 2e 9a 3e
       0.1437848 0.119477525 0.25640154 0.3011369
000330 ef 7c 0b be 9b d2 b4 3d b6 84 06 bd c7 de 8d bc
       -0.13621877 0.08829232 -0.032841407 -0.017318143
000340 87 fa 23 3d fe a4 c4 bc 93 a9 20 3c 94 9a e6 3c
       0.040033843 -0.024004456 0.009806055 0.02814988
000350 18 a9 0c be b2 c6 c0 3d 73 0c 28 3d 41 3a 1b 3c
       -0.13736379 0.09412898 0.041027498 0.009474338
000360 72 cd f6 3d c9 35 59 be b0 14 54 3e 0c c0 c7 3c
       0.12050904 -0.21211924 0.20711017 0.024383567
000370 05 17 7f be 88 16 8c be ec c8 47 3d be d2 0d be
       -0.24911125 -0.2736094 0.0487756 -0.13849923
000380 94 88 b1 3d 2a 67 01 be cf b3 a6 bc 84 75 52 bc
       0.08668628 -0.1263701 -0.020349411 -0.012845401
000390 b9 93 18 3e 2d d9 43 be 7e 01 8d 3d ed 62 55 3d
       0.14900102 -0.19125815 0.0688505 0.052096296
0003a0 8a 7a dc 3d bb 84 30 bd 8d b5 60 bd c9 06 0c 3e
       0.1076556 -0.04309533 -0.05486064 0.13674463
0003b0 1c b1 e6 3b 5f 10 ca bc c4 34 90 3d 3c c1 ac 3c
       0.007040156 -0.02466601 0.07041314 0.021088235
0003c0 ba 24 43 3d ce c7 8c bd ee 90 8a 3d 88 9e be 3d
       0.047642447 -0.06874047 0.067659244 0.09307581
0003d0 b9 5b 57 3d 1b 06 de 3c 64 44 2c 3d e1 76 16 3d
       0.052577708 0.02710252 0.04205741 0.036734466
0003e0 7f cb 6e 39 07 32 02 bd f0 de c6 3d 0f 51 bc 3c
       0.00022773257 -0.03178599 0.09710491 0.02298787
0003f0 9b 26 d7 bd f0 fe 97 bc a3 cc f4 bd 31 89 b2 3d
       -0.1050541 -0.01855418 -0.11953094 0.087175734

res_block1.ln.weight f4 [256]
000000 eb f5 f5 3e f2 ca 28 3f 9b b1 09 3f 4b ba 5b 3f
       0.48039183 0.6593467 0.5378663 0.85831136
000010 4a 2f 99 3f 5f be 60 3f 7a 74 60 3f 69 a6 77 3f
       1.1967556 0.87790483 0.8767773 0.96738297
000020 3d c6 50 3f 5c 06 2a 3f 26 d9 63 3f 97 22 2f 3f
       0.8155249 0.66415954 0.8900322 0.68412155
000030 d9 a6 13 3f 62 72 5e 3f e1 f2 53 3f e5 59 9b 3f
       0.57676464 0.86893284 0.8279248 1.2136809
000040 76 58 0f 3f cd b7 52 3f de 36 28 3f 0e 8c 4b 3f
       0.55994356 0.8231171 0.6570872 0.7951058
000050 e9 91 2e 3f e1 cf 48 3f 7f 7c 1e 3f 6c d7 17 3f
       0.6819139 0.784422 0.61908716 0.5931308
000060 7e 0b 87 3f 0b 7e 93 3f f1 3d 07 3f f3 0d 19 3f
       1.0550382 1.152284 0.5282889 0.5978691
000070 be a3 3d 3f 6e 83 44 3f 4d 45 97 3f 12 c1 16 3f
       0.74077976 0.76763046 1.1818024 0.5888835
000080 db a5 7d 3f 19 09 38 3f f7 9a 44 3f a2 6e 37 3f
       0.990812 0.7188888 0.7679896 0.7165319
000090 5a 32 6b 3f a8 1e 47 3f 47 0f f7 3e ec c0 d2 3e
       0.91873705 0.7778115 0.48253843 0.41162813
0000a0 09 af 34 3f 32 d9 97 3f b1 00 2c 3f 8e 1d 59 3f
       0.7057958 1.1863158 0.67188555 0.8481072
0000b0 2b 53 41 3f cd f9 69 3f b7 fc 99 3f fb 67 08 3f
       0.7551753 0.9139679 1.2030247 0.5328366
0000c0 8f d3 83 3f b8 96 72 3f bd ec 6e 3f d7 c1 5f 3f
       1.0298938 0.9476123 0.93329984 0.8740515
0000d0 42 ad 4f 3f 43 9a f1 3e 20 b1 33 3f f6 58 3c 3f
       0.81123745 0.47188005 0.70192146 0.73573244
0000e0 b2 ed 54 3f 86 11 35 3e 06 17 15 3f d4 b2 ea 3e
       0.83175194 0.17682466 0.58238256 0.4583956
0000f0 83 4c 1e 3f 99 99 ed 3e 01 ec 05 3f e2 a9 4e 3f
       0.618355 0.46406248 0.5231324 0.8072797
000100 d9 49 90 3f ab aa 31 3f 28 06 67 3f 8a b4 d6 3f
       1.1272537 0.69401044 0.9024377 1.6773846
000110 09 aa 01 3f 86 86 24 3f 0c 62 4c 3f 6c c6 92 3f
       0.5065008 0.64267766 0.7983711 1.1466804
000120 43 88 3f 3f 71 83 16 3f 82 fd 9c 3f 47 e1 ff 3e
       0.74817294 0.58794314 1.2264864 0.4997656
000130 cd 8a 75 3f 11 9e 19 3f b7 58 3c 3f 34 a1 06 3f
       0.9591492 0.60006815 0.7357287 0.52589726
000140 af 65 15 3f 77 46 69 3f 66 95 43 3f 83 27 4d 3f
       0.5835828 0.91123146 0.7639984 0.80138415
000150 b8 63 5a 3f 86 64 63 3f 37 a9 81 3f 73 2d 0c 3f
       0.8530841 0.8882526 1.0129765 0.5475685
000160 24 3c 7f 3f 44 87 15 3f 7b 65 35 3f bd 6e eb 3e
       0.9970114 0.58409524 0.7085797 0.45982924
000170 48 63 92 3f f9 c6 5e 3f 77 03 10 3f b9 96 49 3f
       1.1436548 0.8702236 0.56255287 0.7874561
000180 49 bb 37 3f 22 e7 20 3f dd 5d af 3f 76 52 2e 3f
       0.7177015 0.6285268 1.370052 0.68094575
000190 d3 fe 3b 3f 81 5d 61 3f df 7d 14 3f c1 be 2e 3f
       0.73435706 0.880333 0.58004564 0.6825982
0001a0 38 3f 67 3f c3 ee 16 3f 59 e2 f1 3e cd d7 18 3f
       0.9033084 0.5895807 0.47243002 0.59704286
0001b0 c4 52 98 3f 7e e7 ed 3e 01 b1 1f 3f 06 8c 28 3f
       1.1900258 0.46465677 0.6237946 0.6583866
0001c0 00 e6 19 3f f4 da a2 3f 44 d2 3a 3f 21 a9 07 3f
       0.6011658 1.2723069 0.7297709 0.52992445
0001d0 ee f5 03 3f b2 0b 45 3f 38 52 9d 3f 28 f8 5d 3f
       0.51547134 0.7697097 1.2290716 0.8670678
0001e0 e5 90 38 3f c6 b5 0a 3f b6 0d da 3e a0 c2 71 3f
       0.7209609 0.54183614 0.42588586 0.944376
0001f0 38 ad 80 3f b1 30 17 3f a2 51 ff 3e 27 0c 1e 3f
       1.0052862 0.5905867 0.49866968 0.61737293
000200 14 80 4d 3f 00 39 68 3f 30 c8 8f 3f 50 b3 1c 3f
       0.80273557 0.90711975 1.1232967 0.6121111
000210 47 64 49 3f 35 e4 0f 3f 31 be 15 3f b9 b3 5e 3f
       0.78668636 0.5620759 0.58493334 0.86992985
000220 51 2e 03 3f a6 f7 26 3f 6d 9d 2f 3f 7c ba 1d 3f
       0.5124255 0.6522163 0.6859959 0.6161268
000230 9f b4 61 3f c0 42 73 3f a0 13 3f 3f d5 e9 29 3f
       0.8816623 0.9502373 0.7463932 0.66372424
000240 6f 34 c9 3e ef a7 37 3f 2a 4f 40 3f c3 e1 2a 3f
       0.39297816 0.7174062 0.75120795 0.66750735
000250 11 b7 13 3f bb b2 e4 3e d5 0b 1c 3f c0 13 43 3f
       0.5770121 0.4466761 0.60955554 0.7620201
000260 a7 61 29 3f 39 b0 58 3f fa 50 d0 3e ae 47 5d 3f
       0.6616463 0.84643894 0.4068678 0.864375
000270 5b bf a8 3f 72 8c ae 3e 8a 12 81 3f a6 da 8f 3f
       1.3183397 0.34091526 1.0083783 1.1238601
000280 68 d2 53 3f b7 4c 71 3f 7e b0 52 3f 95 70 5d 3f
       0.8274293 0.9425768 0.82300556 0.8649991
000290 0f 59 41 3f 50 78 48 3f 0a c0 81 3f 95 f9 d5 3e
       0.7552652 0.7830858 1.0136731 0.41791978
0002a0 43 87 9f 3f 72 47 70 3f 6c ac 1b 3f e5 7b 5f 3f
       1.2463154 0.93859017 0.6080997 0.87298423
0002b0 46 5c 2e 3f e0 2c 61 3f c2 31 06 3f ac ce 0b 3f
       0.6810955 0.879591 0.52419674 0.5461223
0002c0 4c 61 4c 3f 6a 79 38 3f be 09 6f 3f b7 ce 51 3f
       0.79835963 0.72060263 0.9337424 0.81956047
0002d0 47 f1 7d 3f 02 3c 60 3f 4c 71 1e 3f 95 e9 2b 3f
       0.99196285 0.87591565 0.6189163 0.6715329
0002e0 16 d9 29 3f ed f1 2a 3f 73 ec 35 3f 3a eb 1e 3f
       0.6634687 0.667754 0.7106392 0.6207768
0002f0 03 26 40 3f 26 04 89 3f 80 f6 67 3f d9 78 3f 3f
       0.75058 1.0704391 0.90610504 0.74793774
000300 b4 d2 84 3f 7d e3 9c 3f 56 7f 16 3f 0e 34 8e 3f
       1.0376801 1.2256924 0.5878805 1.1109636
000310 92 47 6a 3f f0 36 63 3f e1 73 2e 3f a1 63 51 3f
       0.9151546 0.887557 0.6814557 0.81792647
000320 eb 11 27 3f b6 81 28 3f 01 0c 02 3f d0 44 f3 3e
       0.65261716 0.65822923 0.50799567 0.47513437
000330 4b 83 9b 3f 72 4f 2d 3f c4 de 32 3f 1a 97 50 3f
       1.2149442 0.6769935 0.69871163 0.8148056
000340 90 df 21 3f ac c4 64 3f af 41 26 3f 7e 8c 2a 3f
       0.63231754 0.893626 0.64943975 0.66620624
000350 88 91 83 3f 15 fa d4 3e 32 82 97 3f da a8 f9 3e
       1.0278788 0.41597047 1.1836607 0.48761636
000360 26 a3 3b 3f 54 7d a2 3f 96 8b 47 3f ad 09 44 3f
       0.7329582 1.2694497 0.77947366 0.76577264
000370 da 0c 87 3f cc 32 8f 3f be a6 fa 3e f2 6d a8 3f
       1.0550797 1.1187377 0.4895534 1.3158553
000380 08 23 45 3f aa c2 57 3f 37 2f f8 3e 7d 81 45 3f
       0.7700658 0.8428141 0.48473522 0.7715071
000390 45 24 4b 3f 99 5e 9d 3f 78 1c 61 3f 94 59 4a 3f
       0.7935222 1.2294494 0.87934065 0.79042935
0003a0 59 b8 20 3f 91 83 5c 3f 9d 8f 7f 3f c1 ea 07 3f
       0.6278129 0.86138254 0.9982851 0.5309258
0003b0 21 0a 3d 3f c5 a4 36 3f 93 c6 40 3f 7e 5c 45 3f
       0.7384358 0.7134517 0.75303 0.77094257
0003c0 97 e3 44 3f 99 f0 58 3f b2 38 3e 3f 19 57 4f 3f
       0.76909775 0.8474212 0.7430526 0.80992275
0003d0 cb 15 6d 3f 24 7f 59 3f 90 5a 2f 3f 83 0c 4d 3f
       0.9261138 0.84959626 0.6849756 0.80097216
0003e0 0b 63 69 3f ee d3 37 3f fb 43 42 3f 18 bc 91 3f
       0.9116675 0.71807754 0.7588498 1.1385527
0003f0 79 00 97 3f 47 10 46 3f 78 12 9a 3f a1 37 27 3f
       1.1797019 0.7736859 1.2036886 0.6531926

res_block1.ln.bias f4 [256]
000000 64 62 af be c6 83 7a be 26 92 ad be 66 40 da be
       -0.34254754 -0.2446433 -0.33900565 -0.42627257
000010 c7 fb b8 be b2 e0 54 be f6 2e aa be 82 b3 5b be
       -0.3612959 -0.2078884 -0.33238953 -0.21455196
000020 39 6b 44 be 26 de c7 be fa 7d 1f be 9f 6f 15 bf
       -0.19181527 -0.39036673 -0.155754 -0.58373445
000030 d8 4d ef be c7 6a 79 be c8 cb 85 be 41 39 b8 be
       -0.46739078 -0.24357139 -0.26132035 -0.3598118
000040 86 3f 9a be 85 47 1b bd 2b 32 9d be 79 f4 0e be
       -0.3012659 -0.037910003 -0.30702338 -0.13960446
000050 18 1c df be d6 ab f5 bd 69 07 08 be 60 f3 7c be
       -0.4357612 -0.11995666 -0.13284077 -0.24702215
000060 89 23 b6 be 5a 91 b3 be a6 c4 a7 be d2 a7 82 be
       -0.35573986 -0.35071832 -0.32767218 -0.25518662
000070 dd b6 6c be 63 b9 0b be 46 e7 63 be 07 a2 c8 be
       -0.23116632 -0.13644938 -0.22256193 -0.39186117
000080 4b a7 1e be 42 07 02 be 69 f3 9a be 86 4b 77 be
       -0.15493505 -0.12698081 -0.30263832 -0.24149904
000090 03 68 b6 be ec e1 18 be 06 ce 58 be 68 b7 bf be
       -0.3562623 -0.14929932 -0.21172342 -0.37444615
0000a0 b7 63 57 be 86 95 95 be 29 e7 0a be a4 4e 6d be
       -0.21034132 -0.2921564 -0.13564743 -0.2317453
0000b0 26 e8 c6 be d7 6c e5 be aa 9e 93 be 48 28 3a be
       -0.3884899 -0.448096 -0.2883199 -0.18179429
0000c0 b1 73 3f be 72 d3 7c be 7e 72 ff bd 4b b0 45 be
       -0.18696477 -0.24690035 -0.124730095 -0.19305532
0000d0 c5 69 93 be 64 07 70 be 09 10 ac be 82 eb 93 be
       -0.28791633 -0.2344032 -0.33605984 -0.28890616
0000e0 3c fc ab be 80 67 e5 be 28 6f 4c be 87 8b ee be
       -0.33590877 -0.44805527 -0.19964278 -0.46590826
0000f0 69 86 f7 be d5 d1 9d be 73 4f a3 be 06 12 34 be
       -0.48344734 -0.30824152 -0.31896552 -0.17585
000100 f5 d2 c5 be a0 93 6e be 48 7f f1 bd 7d c4 29 be
       -0.3863751 -0.23298502 -0.11791855 -0.1657886
000110 45 bf a3 be b5 17 a7 be b5 c5 85 bd 46 a4 ad be
       -0.31981865 -0.32635275 -0.0653185 -0.33914393
000120 6e 11 14 be f3 8b 91 be 12 06 53 be 39 57 ad be
       -0.14459774 -0.28427085 -0.20607784 -0.33855608
000130 c5 a2 6a be dd ee 98 be 59 6a 40 be af 1e a7 be
       -0.22913654 -0.29869738 -0.18790568 -0.32640597
000140 a2 f3 bf be e9 4c 49 bd c8 ea 58 be 67 9c 8c be
       -0.37490565 -0.049145613 -0.21183312 -0.27463076
000150 2e ea a8 be 63 b6 0d bd 76 6e f3 be 28 e4 68 be
       -0.32991165 -0.034597766 -0.47545213 -0.22743285
000160 cb de 3d be b4 01 a2 be 80 05 92 bd ea cc 88 be
       -0.1854202 -0.31641924 -0.07129955 -0.26718837
000170 86 83 ca be 89 f4 0b be 92 09 cf be bf 2d be be
       -0.3955347 -0.13667502 -0.4043699 -0.37144276
000180 5e 53 7f be c4 d1 00 bf 3d d6 f2 be 1e 4b 8d be
       -0.24934146 -0.50320077 -0.47429076 -0.27596372
000190 79 c5 8d be 14 85 64 be 20 3c a4 be cb bd 62 be
       -0.27689722 -0.2231639 -0.32077122 -0.22142713
0001a0 51 43 f3 be 35 9d 4d be 8f 56 06 bf 3c 0c ae be
       -0.47512296 -0.20079501 -0.5247583 -0.3399371
0001b0 cd 09 b1 be 6b e5 ad be 13 69 fe be 63 ef 6f be
       -0.3457779 -0.33964095 -0.4968954 -0.23431163
0001c0 93 f1 29 be 61 8c ba be 10 c7 86 be 27 4e bf be
       -0.1659606 -0.36435226 -0.26323748 -0.37364313
0001d0 7e bf dd be ac 0d cb bd 19 93 30 be 12 a7 ec be
       -0.4331016 -0.09914717 -0.17243613 -0.46221215
0001e0 57 98 a6 be 0a b9 b8 be 8f 86 8b be f6 7d f6 be
       -0.325381 -0.36078674 -0.27251098 -0.48142976
0001f0 91 26 9a be ff 51 ad be 26 97 6f be 3f 2f 87 be
       -0.3010755 -0.3385162 -0.23397502 -0.26403233
000200 dc 0b 94 bc cf 05 02 bf 23 2c a4 be 37 8e 04 bf
       -0.018072061 -0.50790113 -0.32064924 -0.517795
000210 6c 62 64 be 65 c5 82 be e0 a2 86 be f2 48 9a be
       -0.2230317 -0.25541225 -0.2629614 -0.30133778
000220 71 4f ad be 2e ea 78 be 5a 9b a3 be dd 6b 31 be
       -0.3384967 -0.24308082 -0.3195446 -0.17326303
000230 44 56 aa bd 28 6d 9b bd f3 bc 98 be 26 52 88 be
       -0.08317235 -0.07589179 -0.29831657 -0.26625174
000240 03 af 86 be 47 bf 66 be cd 76 c0 be cb 90 f2 be
       -0.26305398 -0.22533904 -0.37590638 -0.47376093
000250 e9 a8 42 be 51 f1 b7 be fe 73 2a be 36 b6 43 be
       -0.19009747 -0.35926297 -0.1664581 -0.19112477
000260 8f 13 63 be d3 dc a8 be 8d 71 f1 be cb ab 13 be
       -0.2217543 -0.32980976 -0.47156945 -0.14421003
000270 b8 d7 8b be 0e 61 d7 be 0d 82 df be 28 f2 5f be
       -0.27313018 -0.42066234 -0.43653908 -0.21869719
000280 4d b6 5a be 3a 1d 2d be 0e ce 98 be eb 52 b4 be
       -0.21358605 -0.1690568 -0.29844707 -0.3521951
000290 1a cb 22 be f2 d0 a2 be b4 f0 2f be 10 e6 d8 be
       -0.1589779 -0.31800038 -0.17181665 -0.42363024
0002a0 b5 68 62 be 4f 88 87 be e6 f0 63 be 8a 8e 80 be
       -0.22110255 -0.26471183 -0.22259864 -0.2510875
0002b0 1e 91 67 be 39 a6 e0 bd f0 4f 01 bf 66 e5 52 be
       -0.22613952 -0.109692045 -0.505126 -0.20595321
0002c0 47 55 89 be 6e 53 e2 be cc 5d 98 be 1e 9c ca be
       -0.26822874 -0.44204277 -0.2975906 -0.39572233
0002d0 ad 61 51 be c9 ad af bd fa 1d 79 be 68 c7 4a be
       -0.20447417 -0.08578069 -0.24327841 -0.1980263
0002e0 00 b0 be be 4a 7b 61 be 6e 49 9d be 8b ea 4b be
       -0.37243652 -0.22019687 -0.30720085 -0.1991369
0002f0 74 13 e0 bd d7 59 cb bd c0 e7 fe bd 26 52 c7 be
       -0.109412104 -0.09929245 -0.124465466 -0.38929862
000300 2f 4c d5 be ae 2d b1 be 0e 86 97 be 3e fa 49 be
       -0.41659686 -0.34605163 -0.29594463 -0.19724366
000310 c5 32 7f be 96 b9 13 be 61 c6 78 be d0 42 0c bf
       -0.24921711 -0.14426264 -0.24294426 -0.5478945
000320 3f aa 80 be 58 ff 4e be 2f f4 67 be 3f cc 62 be
       -0.25129887 -0.20214593 -0.22651742 -0.22148226
000330 f3 de b2 be 23 89 a1 be 09 a1 8e be f8 6d 65 be
       -0.34935722 -0.3154994 -0.27857235 -0.22405231
000340 6a 53 98 be 7a ca 32 be 0f 44 a2 be 18 3b aa be
       -0.2975114 -0.17460051 -0.3169255 -0.3324821
000350 5a 2b 98 be 9a d2 02 bf 47 be 52 be c4 06 20 bf
       -0.29720575 -0.511026 -0.20580398 -0.62510324
000360 dc e9 3e be af f9 92 be 81 05 2f bd d6 14 72 be
       -0.18643898 -0.28706118 -0.04272986 -0.23640761
000370 69 14 bb be 64 59 ac be d7 7a aa be c0 73 d7 be
       -0.3653901 -0.3366195 -0.33296844 -0.42080498
000380 86 50 6c be f2 bd 83 be 94 33 f7 be 93 1f cb be
       -0.23077592 -0.25730854 -0.48281538 -0.39672527
000390 06 d0 e3 bd f3 3e c1 be 90 11 8c be cc 92 50 be
       -0.11123662 -0.3774334 -0.2735715 -0.20368499
0003a0 2a 35 96 be 15 f5 a4 be 72 24 89 be 75 f2 9e be
       -0.29337436 -0.32218233 -0.26785618 -0.31044355
0003b0 25 93 2b be a7 26 be be 3d 52 99 be e2 1e 5a be
       -0.1675535 -0.37138864 -0.29945555 -0.21300843
0003c0 31 95 40 be d3 94 a2 be 80 91 7a be 54 06 a3 be
       -0.18806912 -0.3175417 -0.24469566 -0.31840765
0003d0 65 5c c3 bd b6 eb 95 bd 96 d5 e8 be b9 3e 92 be
       -0.09539107 -0.07320349 -0.45475453 -0.2856348
0003e0 87 d0 5b be e8 ca 49 be cb d3 89 be 71 18 3a be
       -0.21466266 -0.19706309 -0.26919398 -0.18173386
0003f0 64 44 9f be 37 30 8e be 01 c1 e1 be 2a 3f 55 be
       -0.31106865 -0.2777116 -0.44092563 -0.20824876

res_block2.fc.weight f4 [128, 256]
000000 f5 35 7c 3d 87 4d 91 3d 0e fb 2d be 0e b6 bf be
       0.061574895 0.07094865 -0.16990301 -0.37443584
000010 3b 72 28 3f 95 16 94 bd 89 4a b7 3e c5 8a ae 3e
       0.657993 -0.0723087 0.35799053 0.34090248
000020 e8 f0 85 bd 7c c5 95 be fb 36 4c be 14 1b c3 be
       -0.0654009 -0.2925223 -0.19942848 -0.38106596
000030 94 d2 71 3d 67 a3 24 3d 39 da 11 bd 5d 68 cb bd
       0.059038714 0.040194895 -0.035608504 -0.09932015
000040 e7 f5 32 3e f0 3a 1a 3e 65 39 52 be e0 70 8a 3c
       0.17476617 0.15061545 -0.20529707 0.016899526
000050 f1 81 96 3e 90 68 1e ba e5 bc b8 bd 19 17 0a 3f
       0.29396012 -0.00060428027 -0.09020404 0.53941494
000060 d9 90 4b bd 4a 57 d0 be 44 f6 1d 3e 6c 3a ab 3e
       -0.049698684 -0.40691596 0.15425974 0.3344301
000070 12 0a 1f be 5e 43 f7 bc 40 16 a1 be 11 b1 7e 3e
       -0.15531185 -0.03018349 -0.31462288 0.24872233
000080 a9 eb e5 bc 2b 2b cd 3e 53 59 2a 3e a1 fc ba be
       -0.028066473 0.40071997 0.16635637 -0.36520866
000090 8b 3b 77 3e bc a2 92 3e bd e0 27 be fd 93 84 be
       0.24143808 0.2863978 -0.16394325 -0.25894156
0000a0 1b a4 f4 3d 27 76 24 3e f6 6d 6f bd f5 5e 20 3d
       0.11945363 0.16060697 -0.058454476 0.039153058
0000b0 ad 9a ca bd 2d ee 60 be c9 71 8d be 87 ff 94 3d
       -0.09892783 -0.21965857 -0.27625874 0.072753005
0000c0 0d 70 c8 3e f6 47 10 be 57 8a 60 3e bd 89 a2 3e
       0.39147988 -0.14089951 0.21927772 0.3174571
0000d0 9f a1 1a 3f 55 d9 e6 bc ed fb c3 3d 5b 7a 5c be
       0.60402864 -0.028179804 0.095695354 -0.2153105
0000e0 d2 f9 9f bd c1 2b c9 bd 54 1c 0f 3e 7c 74 d0 3e
       -0.07811321 -0.098227985 0.1397565 0.4071387
0000f0 92 ce 0f be 78 14 84 be 5a a0 a2 3e 4b 60 8a 3d
       -0.14043644 -0.25796866 0.31762964 0.06756648
000100 c8 0e df bd de b2 a7 be 41 51 59 3e 78 bb 54 be
       -0.10891491 -0.32753652 0.21222402 -0.20774639
000110 15 2c 42 3e eb d1 aa bd 7f 7c 21 3d 9f 3f 6d be
       0.18962128 -0.0834082 0.03942537 -0.23168801
000120 bc 8c 82 be 73 fc 88 3e ca a1 57 bd 75 8c 89 bd
       -0.25497997 0.26755103 -0.05264453 -0.06716243
000130 f2 b8 5b be 31 01 79 be 1a da 22 3e f0 10 40 bd
       -0.2145727 -0.2431686 0.15903512 -0.046891153
000140 86 5d 20 3e 06 01 8d bd 6a 70 c8 3e 82 79 f0 bd
       0.15660676 -0.06884961 0.39148265 -0.11741926
000150 d1 32 89 bd 45 9b 46 be f6 13 bc 3d 32 80 2e 3e
       -0.066991456 -0.19395168 0.09183495 0.1704109
000160 75 f8 0b 3e 97 83 01 3c 7f ae f0 bd 75 fb e2 bc
       0.13668998 0.007904909 -0.117520325 -0.027707795
000170 cd 26 9c bd 86 55 64 3e d4 cc ec 3d b7 36 88 3e
       -0.07624588 0.2229825 0.11562505 0.26604244
000180 40 b6 ba 3c 4c 1b 2a bd 2e b3 39 3f 12 df 87 be
       0.022791982 -0.04152994 0.7253903 -0.26537377
000190 52 ca 8e bd 72 3d d7 bb b7 0b 02 3e 61 1c 9c 3d
       -0.06972183 -0.006568604 0.12699781 0.076226
0001a0 b3 bb f0 3d b7 44 b7 be 4c 24 e4 bd d1 62 af bd
       0.11754551 -0.35794613 -0.111397356 -0.085637696
0001b0 ef 9a b9 3e db a8 e8 bc cf 73 0f bf fc ec 09 be
       0.36251017 -0.028400829 -0.56036085 -0.13469309
0001c0 bb 40 18 bc 2d 26 2b 3f 62 95 85 be 1d fe a7 3d
       -0.009292777 0.66855127 -0.26090533 0.08202765
0001d0 ad 15 0e bd e7 24 3f 3e 40 e2 1e bd a1 98 dd bd
       -0.03468864 0.18666421 -0.038789988 -0.10820127
0001e0 fb bb 47 bc b9 b0 73 be a9 a3 be 3d e7 56 8b be
       -0.012190814 -0.23797883 0.093085594 -0.2721474
0001f0 9b 60 61 3d b1 13 16 3e 01 16 c0 3e 96 c1 50 be
       0.05502377 0.14655949 0.37516788 -0.20386347
000200 ed 87 44 be e1 c7 aa be 73 c4 b1 3b 09 82 af 3d
       -0.19192477 -0.3335562 0.00542503 0.08569724
000210 b5 7c b7 3d 27 da 5f be 92 44 9b 3e 74 33 fd 3d
       0.08959333 -0.21860562 0.30325752 0.123633295
000220 6a 39 1c be 0e b0 36 3e 87 ad db bc 06 f8 3d 3e
       -0.15256277 0.17840597 -0.026816143 0.18551645
000230 96 f4 f2 3d 12 7f eb bb 7e 5d 91 be 06 74 c1 3b
       0.11863057 -0.007186779 -0.2839164 0.0059037236
000240 9a bd 81 bd 0a 9f b2 bd d0 f1 b5 3e ff ea c6 3d
       -0.06334992 -0.087217405 0.3553605 0.09712791
000250 f6 31 5e 3e 4e 90 75 be ec 98 11 3e 6e 18 0f be
       0.21698746 -0.23980829 0.14218491 -0.13974163
000260 25 77 83 3e e9 4f 88 be 9e d4 44 be 2d 25 10 bd
       0.25676838 -0.26623467 -0.19221732 -0.035191704
000270 0f 9f 0f 3e 5d 62 86 3e 2c 6a 26 3e 0c 0e 84 be
       0.1402552 0.2624692 0.16251439 -0.25791967
000280 03 81 7d be d2 81 ab 3d 26 47 de 3d 00 a4 94 be
       -0.24756245 0.08374371 0.10853414 -0.29031372
000290 95 b2 ab 3d 73 e8 71 3d db 88 5d be b2 32 3f 3e
       0.08383671 0.05905957 -0.21634237 0.18671682
0002a0 09 dd 64 be 33 4b eb 3d 66 0d d0 3d 16 2e ea 3d
       -0.22349943 0.114889525 0.101588055 0.114345714
0002b0 81 0e 07 be ec f4 72 3e ae 64 28 3e e7 17 e2 bb
       -0.13189127 0.23726243 0.16444656 -0.006899822
0002c0 27 7b 01 3e d6 e6 b9 3d e5 c0 4c 3e 21 ba 06 bd
       0.12644635 0.090772316 0.19995458 -0.03289235
0002d0 46 60 85 3e e5 d1 0c 3e 03 78 75 be 9a 23 91 bd
       0.26050013 0.13751943 -0.23971562 -0.070868686
0002e0 ea 80 a5 3d 5e ec b1 be a9 08 0b be bd 01 a8 bd
       0.08081229 -0.34750646 -0.13577522 -0.082034566
0002f0 59 41 61 bd 94 cd 5a be cd 87 3c 3e 19 54 55 be
       -0.05499396 -0.21367484 0.18411179 -0.20832862
000300 39 d3 a4 3c bc d9 c6 3d 81 61 bb 3c 12 28 c7 bd
       0.02012025 0.09709498 0.022873642 -0.0972444
000310 32 ff 8e 3c 31 40 a8 3d 70 7f ea be 49 b0 d2 3c
       0.017455671 0.082153685 -0.45800352 0.025718825
000320 f6 93 e8 bd 5b a1 d8 3d 66 36 ec be 4c b7 bb bd
       -0.11356346 0.10577651 -0.46135253 -0.091658205
000330 37 d4 9f 3e be 18 cf be 0d 39 3f bd 48 0a 4b bd
       0.31216595 -0.40448564 -0.046685267 -0.04957035
000340 54 77 c1 3c a4 52 8f 3e 15 7e b3 3d 63 8d a4 3d
       0.02361647 0.27992737 0.087642826 0.0803478
000350 2b f7 9b 3d d4 84 44 be 46 80 6e be d0 40 4a bf
       0.07615503 -0.19191295 -0.2329112 -0.79005146
000360 0b 80 95 bd 20 4e c4 3e 6f 3b 74 3d b3 5d 96 be
       -0.07299813 0.38340855 0.059626993 -0.29368362
000370 a2 16 60 3e d0 91 d0 3e 2e f1 0d be 0e 97 d0 3e
       0.21883634 0.40736246 -0.13861534 0.40740246
000380 9a 49 07 3d d4 b1 de 3c 30 2c fd 3e b4 ad 38 bd
       0.033029176 0.027184404 0.49447775 -0.04508753
000390 b6 ea 02 be a0 d6 1b 3e 61 12 a8 be 24 99 0c bd
       -0.12784848 0.15218592 -0.32826522 -0.034325734
0003a0 b3 51 12 be fc 3f 54 3d 03 25 c3 bd b3 ea e1 be
       -0.14288978 0.051818833 -0.09528544 -0.44124374
0003b0 30 ab 97 3e 83 18 c4 bc 64 83 44 be 6c 25 a3 3b
       0.29622793 -0.02393747 -0.19190747 0.0049788263
0003c0 a4 17 16 3e 21 7d 12 be 0e ee 0f bd 68 79 93 3e
       0.14657456 -0.14305545 -0.035139136 0.28803563
0003d0 84 26 8e 3d ef a5 52 3e f0 48 83 be f1 c4 2a bf
       0.0694094 0.20571111 -0.25641584 -0.6670676
0003e0 33 9d b7 be fe 22 a3 bb 97 56 ce 3d e1 3e 17 3e
       -0.3586212 -0.0049785366 0.100751095 0.1477008
0003f0 78 c7 83 3e 2f c1 61 3e a2 17 8e be d5 c3 93 bd
       0.2573812 0.2204635 -0.27752405 -0.07215086
