backend/K2_best_residual_mlp_model.pth (torch, 685461 bytes, 24 tensors)

entry.weight f4 [256, 11]
000000 13 da 4f bd d2 ab f4 3d fd 91 f9 3e af 2e 8d 3e
       -0.05074508 0.119468346 0.48744193 0.2757468
000010 65 bb 98 be 2a aa 85 3e dc 05 e2 bc c9 bf 0e 3e
       -0.2983047 0.26106387 -0.027590685 0.13940348
000020 8c e5 97 3e 20 76 17 be 73 04 41 be 16 56 69 bc
       0.29667318 -0.14791155 -0.18849353 -0.014241716
000030 92 7a 90 be ee 37 07 bf ca 27 2e 3c b0 10 b9 3e
       -0.28218514 -0.52819717 0.010629604 0.36145544
000040 c4 fe 84 3e 6e 3f 1c 3d f1 2f 85 bc 76 48 3f be
       0.2597562 0.03814643 -0.016258212 -0.18679985
000050 81 1e 1d 3e c8 09 f2 bb 75 51 36 be 0c 76 49 3e
       0.15343668 -0.00738642 -0.17804511 0.19673938
000060 15 f7 d9 3e ad 4a 49 3e 4e 88 10 3e a8 02 91 3d
       0.4257132 0.19657393 0.14114496 0.07080585
000070 c8 10 5f be 57 94 49 3e d5 80 de bd f1 75 23 3e
       -0.21783745 0.19685493 -0.108644165 0.1596296
000080 8e 10 45 be bd 2a f4 3e 20 e2 3a 3e de 41 28 bf
       -0.19244596 0.47688857 0.18250322 -0.65725505
000090 0c de 52 3e 51 21 8d 3e d9 7a 1b 3e 1d 7b b8 bd
       0.20592517 0.2756448 0.15183581 -0.09007857
0000a0 80 ed 48 be 2c 4b fa 3c f8 78 76 be 95 44 28 be
       -0.19621849 0.030553423 -0.24069583 -0.16432412
0000b0 5a d8 a1 3e c4 78 31 3e 2a aa 8a 3d 08 00 c8 3c
       0.31610376 0.17331225 0.067707375 0.024414077
0000c0 5b a0 5f 3e aa 05 7a be 2e f8 ec bd 21 b1 40 bd
       0.21838515 -0.24416223 -0.11570774 -0.047043923
0000d0 99 5b 17 be b9 d4 ca bd 62 f2 c5 3d d8 af 32 3e
       -0.14781035 -0.09903855 0.096653715 0.17449892
0000e0 b4 d3 35 be 83 8b 63 3e 15 92 33 bc bb aa 2b be
       -0.1775654 0.22221188 -0.010960122 -0.16764347
0000f0 0a 69 bb 3d 34 fd 9c be 10 c4 50 3a 44 5e a3 be
       0.09150894 -0.3066193 0.0007963786 -0.31907856
000100 b7 b7 6a 3d ce d0 7e 3b 52 55 12 be 78 cd 82 be
       0.05730411 0.0038881782 -0.1429036 -0.25547385
000110 dc 26 ad be 48 f2 2f 3d 30 7e 9a be 25 ef fa 3d
       -0.3381871 0.042955667 -0.30174398 0.122526444
000120 a6 e0 3c 3d 1a 36 0d 3e be 6b 20 3e 83 7b 42 3e
       0.04611268 0.1379017 0.156661 0.18992428
000130 26 da a1 3d 6d 81 90 be d2 c2 15 3e 6e 94 44 3d
       0.07902937 -0.28223744 0.146251 0.047993116
000140 ae f4 bc bb 25 f8 b9 be 3a 2c 2c be 84 de 80 be
       -0.005766473 -0.36322132 -0.16813746 -0.25169766
000150 69 75 3b 3e 00 55 a4 3d 16 08 b3 3e 41 f7 04 3e
       0.18306507 0.08024025 0.34967107 0.12984945
000160 73 5f 09 3e 58 93 d7 3c c8 04 0c 3f 5e cf 16 3e
       0.13415317 0.026315376 0.54694796 0.14727542
000170 71 60 55 bc 63 5b 0c 3e cc e4 18 be 0c 25 ca 3c
       -0.013023482 0.13706736 -0.14931029 0.024675868
000180 c0 c2 5d 3d 05 4e 3a 3e 8d a8 e2 bd 46 e7 1d be
       0.054140806 0.18193825 -0.11067305 -0.15420255
000190 cc 51 18 3e 5d e3 a6 3d 65 70 e3 3c 88 07 1b be
       0.14874953 0.08148835 0.027763555 -0.15139592
0001a0 82 e7 ba bd 7a 65 13 be d6 3e 9e 3c fa f4 06 be
       -0.09126188 -0.14394179 0.019317072 -0.13179389
0001b0 b6 bc 24 be 5d a0 66 be 72 d7 c7 3d 23 b2 b0 3d
       -0.16087613 -0.22522111 0.0975789 0.08627727
0001c0 0a 04 bf 3d ef 70 78 be 6b e3 06 bf 62 d9 a3 3d
       0.09326942 -0.24261831 -0.5269076 0.08000447
0001d0 2b 84 b5 be 26 3a f1 3e 6e 94 7a 3e 84 27 77 bd
       -0.354524 0.47114676 0.24470684 -0.06034042
0001e0 e5 ba ed bd df 0c 81 be 5c 8d ad bd 3a b1 a0 3e
       -0.11607913 -0.25205132 -0.08474228 0.31385213
0001f0 6f cf 7f 3d d9 f1 03 bf 98 e8 21 be e6 d0 13 be
       0.062453683 -0.51540905 -0.15811384 -0.14435157
000200 d2 2b 66 3c ba 2d a5 3e c0 7c ae 3e 76 8f 7f 3e
       0.0140485335 0.3226145 0.34079552 0.2495707
000210 07 d1 09 3d ab c7 52 3e 36 0b 05 3f b1 87 59 be
       0.03364661 0.2058398 0.5197023 -0.21243168
000220 31 23 98 3d 96 d4 8d be 97 1a b8 be 93 c0 1d be
       0.07428587 -0.27701253 -0.35957786 -0.15405492
000230 2b dd b9 be 31 67 fb 3d 85 76 96 be c6 8b 36 3e
       -0.3630155 0.122755416 -0.29387298 0.17826757
000240 63 ee 08 be a6 59 94 3e d8 58 72 3e 90 8b 27 bf
       -0.13372187 0.28974646 0.23666704 -0.6544733
000250 48 d1 21 3e 26 d8 5b bd 21 39 5a be 70 32 ae 3e
       0.1580249 -0.053672932 -0.21310855 0.34022856
000260 3d c9 0b 3e f2 14 dc bb cf 1a 93 3e 95 04 a9 be
       0.13650985 -0.006716364 0.2873139 -0.33011308
000270 86 34 b5 3e 77 1f 3c 3d 3b da 63 be de 75 3e 3e
       0.35391635 0.045928445 -0.22251217 0.1859965
000280 de 25 af bd 2e 96 d6 bd ef 84 86 3e 20 e7 12 3d
       -0.085521445 -0.10477863 0.26273295 0.03586495
000290 a0 61 28 3e 60 22 9f be 0e b0 9e 3d 83 70 42 3e
       0.16443491 -0.31080914 0.077484235 0.18988232
0002a0 e5 3f f2 bd 0f b3 1d 3e ed 62 9c bd 45 28 51 3e
       -0.11828593 0.15400337 -0.07636056 0.20425518
0002b0 00 2f fd bd e7 47 0b 3e 02 93 92 be df b2 32 bd
       -0.1236248 0.13601647 -0.28627783 -0.043627616
0002c0 96 18 0f be e9 e7 b6 be 95 9e c0 3e 05 9c 02 3e
       -0.13974223 -0.35723808 0.37620988 0.12754829
0002d0 f6 ec 12 3e 03 eb c3 3c 2c 51 b9 be 34 41 82 3e
       0.14348206 0.023915773 -0.36194742 0.2544037
0002e0 ce 35 a2 bd df 25 28 be 24 ea ac 3e 68 59 32 bd
       -0.07920419 -0.16420697 0.33772385 -0.043542296
0002f0 79 94 f5 3d c6 95 04 be b8 85 29 bd f8 c1 e0 be
       0.119912095 -0.12947759 -0.04138729 -0.43897986
000300 83 d0 5a 3e 4e 5f d3 3d 37 8f 88 3e 69 02 b3 3c
       0.21368603 0.10320912 0.26671764 0.021851735
000310 8d 5a 8b 3e 46 b4 81 be 1d 58 6a bc 69 44 a2 bd
       0.27217522 -0.2533285 -0.014303234 -0.079232045
000320 7b 58 c9 be 34 82 d7 3d a7 22 eb bd cc 17 37 3c
       -0.39325318 0.10522881 -0.11481219 0.011175107
000330 4f 51 c9 bc 54 5e 2b be 84 f8 c6 bd 29 04 9f be
       -0.024574904 -0.16735202 -0.09715369 -0.3105786
000340 bd f3 5f 3d 60 b5 a8 3e 75 92 ad 3d 68 6d ac 3e
       0.054675806 0.32950878 0.084752 0.3367722
000350 84 25 ea bd c8 77 9a bd 0c 9e 77 3d 40 52 ad be
       -0.11432937 -0.07542378 0.06045346 -0.33851814
000360 56 b1 89 3e a8 c4 49 be 33 cf 1a 3e 65 cc 7d be
       0.2689311 -0.19703925 0.15118103 -0.24785002
000370 f5 53 75 be cb 6f 3e 3c 76 59 e1 bc 73 7b 71 be
       -0.23957808 0.011623333 -0.027508479 -0.23582248
000380 e2 36 fc bb 83 60 fa 3d 45 27 b2 be dc d6 4d be
       -0.007696972 0.122254394 -0.34795585 -0.20101494
000390 a6 79 e4 3c 15 6f 83 3e 3e 68 68 3d ca a8 9a 3c
       0.027890038 0.25670686 0.056740038 0.018879313
0003a0 5c 18 63 3e f9 11 56 bd d8 78 ba 3c 3c e1 01 bf
       0.22177261 -0.052263234 0.0227627 -0.50734305
0003b0 55 86 62 be 46 42 14 bd 60 f9 bd be da 2a 27 3e
       -0.22121556 -0.036196016 -0.3710432 0.1632494
0003c0 10 70 5a bf 6e ee c2 bd e1 09 19 bb 17 56 81 bc
       -0.85327244 -0.09518133 -0.0023351836 -0.015788121
0003d0 e0 1e b4 bd 8f 07 83 3d f2 aa b4 3d 6b bc 60 3d
       -0.087949514 0.06397926 0.08821668 0.05486719
0003e0 1d cb f4 bd a7 37 a6 bc de bf 81 3c a3 b0 93 be
       -0.11952803 -0.020290209 0.01583856 -0.288457
0003f0 97 64 48 be 00 d1 c5 bc a6 2b cc bd 04 ee f9 3e
       -0.19569622 -0.02414751 -0.09969263 0.48814404

entry.bias f4 [256]
000000 94 6c 83 be 65 79 81 bd 88 1b 14 3e 28 fa 2e be
       -0.25668776 -0.06321982 0.14463627 -0.17087615
000010 4c 60 22 3e ff 65 20 3e b2 61 04 3e 48 ca 15 be
       0.15857047 0.15663908 0.12927893 -0.14627945
000020 1b 19 35 3e 9a 40 89 3e 0f 11 b2 be 4b f6 72 be
       0.17685358 0.268071 -0.3477864 -0.23726766
000030 62 68 4c 3e 60 cd 95 be 73 01 f1 bd a0 19 55 be
       0.19961694 -0.2925825 -0.117678545 -0.20810556
000040 ae 72 26 3e 8f f2 03 be 4b b7 b8 3d 65 a5 81 bd
       0.16254684 -0.12885498 0.09019335 -0.06330375
000050 7e 00 3a bd 0d dc 70 bc b4 0c 1b bd 4a 2b f9 bd
       -0.045410626 -0.014700902 -0.03785391 -0.1216646
000060 d1 c3 00 be fa 4b 35 be 94 28 5b 3d 0e cc e3 bc
       -0.12574698 -0.17704764 0.053505495 -0.027807262
000070 cb e7 e2 bd fa 43 69 be 5a 09 0b be a3 41 6c bd
       -0.11079367 -0.22779837 -0.13577786 -0.057679784
000080 e3 53 c6 3d 62 a5 42 be 40 d5 1b 3e a1 58 3f be
       0.09683969 -0.19008401 0.15218067 -0.18686153
000090 cc f6 39 be 21 0c 77 3e 4a 50 8d bb e1 b3 8b be
       -0.18160552 0.2412572 -0.0043125497 -0.27285674
0000a0 2f 1e 4a be 56 6b fb bd 07 03 00 3e 49 5d c7 3d
       -0.19738077 -0.12276332 0.12501155 0.097345896
0000b0 ee c4 1c be fc ae 1c 3e 19 fb 6c 3d 4b 40 42 3e
       -0.15309498 0.15301126 0.057856653 0.18969838
0000c0 61 f9 99 3c 8c f5 26 3e 19 1f a6 3d e5 d5 59 be
       0.018795671 0.16304606 0.081114 -0.21273
0000d0 3a 07 37 3d 04 13 aa 3c 99 dc 33 be 44 bf 11 3e
       0.044684626 0.02076102 -0.1756462 0.14233118
0000e0 ac fc b7 3d b5 4f 8a be b4 a0 92 be ea bd 92 3c
       0.0898374 -0.27013937 -0.28638232 0.017912824
0000f0 63 90 49 3d 63 e3 2c be c3 bf f8 3d f0 27 98 bd
       0.049209964 -0.16883616 0.12145951 -0.074294925
000100 32 18 4b 3e ba e8 6e be aa db a8 3c e8 c3 d8 3d
       0.19833449 -0.23330966 0.020612556 0.10584241
000110 b7 6c 3e 3d fb 14 77 be 44 16 6e be e4 27 c9 bd
       0.046490397 -0.24129097 -0.23250681 -0.09822062
000120 d8 a2 38 be 35 30 9e 3d e7 39 79 3c 40 d0 cb bd
       -0.1803087 0.077240385 0.015211559 -0.0995183
000130 90 97 2f be e9 1c 58 3d 4b d5 bf bd 50 d6 d0 3d
       -0.1714766 0.052761946 -0.09366854 0.10197127
000140 67 4d ab be 97 ee 65 3e 6e bb 3e bc f5 4d 23 3e
       -0.3345749 0.22454296 -0.011641366 0.15947707
000150 c9 a9 70 bd 75 15 dc 3d 7e 81 5d be ce 1e 1c 3e
       -0.05875567 0.1074628 -0.21631429 0.15246126
000160 c2 1c 9c 3d 97 e0 df be 75 80 ba bc c5 90 85 bd
       0.076226726 -0.43726036 -0.022766331 -0.06521753
000170 be 1e 51 3c 7c 21 1a bd 05 20 35 be 60 25 0f be
       0.012763677 -0.03762959 -0.17687996 -0.13979101
000180 d4 d1 51 be 54 5a b4 3d 5e da 87 3d bb b3 50 be
       -0.204902 0.08806291 0.06633447 -0.20381062
000190 5a 0e 91 3d 5b 26 80 be fe b3 61 3e ac ef ae bd
       0.070828155 -0.25029263 0.22041318 -0.085418075
0001a0 e3 e0 43 bd a0 f6 8c bd 8c 6c 4e bd ba a5 6b 3e
       -0.04782189 -0.068829775 -0.050396487 0.23012438
0001b0 0b b0 76 be 5c 01 02 be eb 73 9f 3e f3 60 94 bd
       -0.24090593 -0.12695831 0.31143126 -0.07245054
0001c0 48 6c 29 3c 42 94 f8 bd 0c c5 c0 3d fa bf c4 3d
       0.010340758 -0.12137653 0.09412584 0.09606929
0001d0 30 4e c8 3d 40 6c 4e be 00 5d 17 bd f9 89 85 3e
       0.09780538 -0.20158482 -0.036953926 0.26081827
0001e0 63 d2 1b bc 3c f6 e7 3d 69 11 08 3d 1f b8 f4 3b
       -0.009510609 0.11326262 0.03321973 0.007468238
0001f0 f7 24 b6 be fa a7 49 bc 16 05 b6 3b d4 9e ba bc
       -0.35575077 -0.012308115 0.0055548055 -0.022780813
000200 cc 99 4c bd 96 fe 22 be c9 a2 0e 3e 85 54 02 bd
       -0.04995136 -0.1591743 0.13929285 -0.031818885
000210 87 e8 7a 3e e2 65 59 3d 67 d0 30 3e 51 94 3e be
       0.24502765 0.05307568 0.17266999 -0.18611266
000220 ec f5 45 3e c6 b2 65 3e 6f 0f a7 3a 4b 06 5e 3e
       0.19332093 0.22431478 0.0012745688 0.21682088
000230 3f ac bd 3d 54 2d 09 bd 3d b1 0e be 69 12 c2 3c
       0.09261369 -0.033490494 -0.13934799 0.02369042
000240 26 97 f9 3b 9e 6b a7 3d 87 9c ce 3c 49 d7 cd bc
       0.0076168953 0.08174823 0.025221122 -0.02512707
000250 8a d0 9c 3c be 6a 59 bd ce b2 e1 bd 13 8f 14 be
       0.019142408 -0.053080313 -0.110204324 -0.14507703
000260 e2 b9 3d bd 6d 2a eb bd 1e 6a 5d be c4 0a 94 3e
       -0.04631985 -0.114827015 -0.21622512 0.28914464
000270 3a 61 bb be da 98 0e bd 11 3f cc bd e4 5c bb 3d
       -0.36597615 -0.03481374 -0.099729665 0.09148577
000280 4d 45 ac be 3e 88 7d be bf 29 87 be 99 b9 f8 bd
       -0.33646622 -0.24759004 -0.26399037 -0.12144775
000290 c3 9f 05 be 38 68 81 be 94 45 2f 3e f9 01 95 be
       -0.13049226 -0.25274825 0.17116386 -0.29103068
0002a0 a8 a3 85 bd 88 70 ba bd 3e 78 29 3e b9 82 70 be
       -0.065253556 -0.09103495 0.16549775 -0.23487367
0002b0 aa e4 a7 bd f4 eb 43 3e 7f cd 55 bd 36 01 0d be
       -0.08197911 0.19132978 -0.05219793 -0.13769993
0002c0 7b 73 b0 be f3 47 9d bd ed ba 19 be ca 25 ba 3d
       -0.34463105 -0.07679739 -0.15012713 0.09089239
0002d0 5f 46 db 3d 5b eb 0c be 05 bd 46 bd 0d 7e 80 3e
       0.107067816 -0.13761656 -0.048520107 0.2509617
0002e0 6d 48 af 3e 4c c9 81 bd 02 71 82 3e 9e 4d 41 be
       0.34234944 -0.063372225 0.25476843 -0.18877265
0002f0 88 22 59 be 8c ae be be 3e 26 a2 3d 20 3e 22 3e
       -0.21204579 -0.37242544 0.0791745 0.15844011
000300 f7 7c 97 3d 42 46 9c 3c aa 93 4a be 28 d4 87 be
       0.07396882 0.01907647 -0.19782892 -0.2652905
000310 fe bc 72 bb 8f ae 3c 3e d2 c8 a3 bd 31 2f 9f 3d
       -0.0037038918 0.18425964 -0.07997288 0.07772673
000320 f7 bd 7e 3e c1 2e ab 3e b5 95 86 bd d2 89 a9 bd
       0.24877153 0.33434108 -0.06571523 -0.0827824
000330 8e 94 05 bd a7 a7 4d 3e 2b 7a 82 be 7f 00 7b bc
       -0.032612376 0.20083486 -0.25483832 -0.0153199425
000340 4e df e1 bd 00 8c 5e 3e b5 6a a3 be 3b e9 15 bd
       -0.1102892 0.21733093 -0.31917349 -0.03659938
000350 eb 0e 2e 3e 16 00 8d 3d da 27 c4 be 40 58 ac 3d
       0.16997878 0.06884782 -0.38311654 0.0841527
000360 7c 13 1e be 3a 2d 76 bd c9 6b 84 bd 49 bd 98 3d
       -0.1543712 -0.060101725 -0.06465871 0.07457978
000370 a9 7f 87 be a5 06 80 be d8 4e 94 3e bf 43 01 3e
       -0.26464584 -0.2500507 0.28966403 0.126235
000380 84 90 39 bc a5 35 4f be 20 6b da 3b b4 e9 72 3e
       -0.011325959 -0.20235308 0.0066656023 0.23721963
000390 fb ea 82 be 53 96 27 3d 75 c4 bb 3a 67 55 10 3e
       -0.255699 0.040914845 0.0014325517 0.14095078
0003a0 e8 bd ad 3d e8 48 5a 3e 95 6f 2d bd ac 6c 97 3d
       0.08483487 0.21316874 -0.04234274 0.073937744
0003b0 3b 25 14 3e f0 04 d0 3d 0e 41 eb bd 2e f1 e6 3d
       0.14467327 0.10157192 -0.114870176 0.1127647
0003c0 bb 2d 5a 3e 0a fd 00 be be 72 6f be 32 6c c3 be
       0.21306507 -0.12596527 -0.23383614 -0.38168484
0003d0 1f d1 b0 be 99 73 c6 3c 68 69 9a 3e 31 c9 2e be
       -0.34534547 0.024225043 0.30158544 -0.17068936
0003e0 25 44 4e 3d d4 80 41 3e 39 67 2c be 32 a0 3f bc
       0.050357956 0.188968 -0.16836251 -0.011695908
0003f0 e7 19 22 3e 33 30 78 3e a1 77 45 3e d2 0f 1d be
       0.15830193 0.24237137 0.19283916 -0.15338066

res_block1.fc.weight f4 [256, 256]
000000 6e ce 98 bc f7 bc d0 3d 76 fc c1 3c c2 15 fc 3d
       -0.01865312 0.10192292 0.023679953 0.123088375
000010 5d 95 2b bc 41 77 22 bd 56 1f 07 3d 60 0d 8b bc
       -0.010472623 -0.03966451 0.03298887 -0.016974151
000020 e9 e4 fc bb 8c 98 3a bb a1 6d e7 bd 38 9e 74 ba
       -0.007717718 -0.0028472273 -0.11300207 -0.0009331438
000030 bc 3b b0 3d 66 1e 9b bb 12 46 33 bc f4 ac 27 3d
       0.086051434 -0.0047338484 -0.010941999 0.040936425
000040 28 74 60 3d d8 b7 f5 bc 0a 6b c8 3d b1 0d 91 bd
       0.054798275 -0.02999489 0.09786041 -0.070826896
000050 d9 11 b3 3c 1a 0f 2c 3d 9d b4 fb bc ea 05 d7 bc
       0.021859096 0.04200659 -0.030725772 -0.026247937
000060 79 f9 8f bc 8d 3f 25 bd a3 a4 3c 3d f0 db de 3c
       -0.017575013 -0.04034381 0.046055447 0.027204484
000070 92 e3 9f 3c 63 97 7d bd 40 a3 99 3d e1 08 62 bd
       0.019517694 -0.06191195 0.075018406 -0.05518425
000080 d6 14 ee 3c 33 ab 68 3d 5d 2b cf 3c 31 50 12 3e
       0.02906267 0.056803893 0.025289232 0.14288403
000090 ea 8c 79 3c 47 5a 99 bb 45 19 a9 bd be cd 14 3d
       0.01523135 -0.0046799514 -0.08256773 0.036329024
0000a0 fd b7 b9 bb 73 54 8f bd b3 6d 0c bc eb 74 45 3c
       -0.005667685 -0.06998529 -0.008571076 0.012051801
0000b0 9c 9a 33 bd e7 a2 b6 3d 61 f9 2e 3d 51 bf 04 3e
       -0.04384862 0.0891779 0.042718295 0.12963606
0000c0 9d 95 e1 3c 03 5d 9f 3d 74 07 da 3c ce ad 5e bd
       0.027537161 0.077814125 0.026614882 -0.05436497
0000d0 b1 85 62 3d 1f ce 45 3c fb d7 f5 3c 81 19 a6 bd
       0.05530328 0.012073069 0.030010214 -0.08110333
0000e0 f6 55 19 3c ce 97 98 bd 1e f1 ea bb 30 82 c1 3c
       0.009358874 -0.074508294 -0.0071698567 0.023621649
0000f0 e8 a4 2e bd 4f 71 32 be a7 87 42 3d b2 1d 08 bd
       -0.042637736 -0.17426036 0.04749265 -0.033231445
000100 36 f2 dc bc 2c fe a4 bc 41 8d 89 bb e0 fc 53 bc
       -0.026970964 -0.02014073 -0.004197747 -0.012938708
000110 4a 13 a0 3c af f8 93 bd f1 74 9d 3b 28 3e c9 3b
       0.019540448 -0.07225167 0.0048052003 0.006141443
000120 d2 9b cc bd 4a 82 bb bb e3 6b bc 3d c8 b8 54 3d
       -0.09990658 -0.005722319 0.09200265 0.051934034
000130 11 19 2a 3d d4 63 4b bd 7c 88 11 3c 15 ec 02 3c
       0.04152781 -0.04965575 0.008882638 0.007990857
000140 75 2a c0 3d 25 5a 79 bd 44 49 c0 3c 53 48 64 3d
       0.09383098 -0.060876984 0.023472436 0.055733036
000150 f0 8c 0d 3c 56 9f a4 bd bf c8 3b bb 69 11 f5 3c
       0.008639559 -0.080382034 -0.002865359 0.029915528
000160 9d 92 3f 3d 7e ff 94 bd ce 4f 9a bc 99 98 69 3d
       0.04677068 -0.07275294 -0.018836882 0.057030294
000170 78 cb 1c 3e 56 3d 86 bd 67 39 b9 3b 31 25 e2 3c
       0.15311992 -0.06554668 0.005652595 0.027605625
000180 c7 70 9a bd 09 ee 8b 3c cb 86 e3 3d 82 55 3b bd
       -0.07541042 0.017081277 0.11109694 -0.045735843
000190 6c 48 06 bd 09 d3 25 3d 13 50 9d bc 10 a7 d7 3d
       -0.03278391 0.040484462 -0.019203221 0.105299115
0001a0 f0 5e 8d bd e4 43 39 bb 6c 20 99 3c 09 ca 66 3d
       -0.069028735 -0.0028269226 0.018692218 0.05634502
0001b0 60 50 0a bb 53 6f 13 bd 3a 73 ce 3c 1d a2 7c 3c
       -0.0021105036 -0.03599484 0.025201429 0.01541951
0001c0 b1 85 d4 3c 9f 08 03 3d 7f d2 0f bb 5f 96 c7 3d
       0.025942655 0.031990644 -0.0021945534 0.09745478
0001d0 a9 9f b4 3d 3b fa bb bd a5 e3 80 3d 10 64 45 3e
       0.08819515 -0.09178587 0.0629342 0.19276452
0001e0 d8 b4 73 3c 01 62 ec 3b 7e 43 8e 3c 80 7e e7 3c
       0.0148746595 0.0072138314 0.017366167 0.028258562
0001f0 56 65 92 3d fe db 2d 3d 14 c9 07 bd 2a 76 24 bd
       0.071482345 0.04244613 -0.033150747 -0.040151753
000200 8b b7 90 3c c1 d5 f8 3d 9b a8 5a 3c 28 6a 06 3e
       0.017665645 0.12150145 0.013345863 0.13126433
000210 02 66 d4 3c dd 31 64 bc 74 33 28 3d 52 4f 38 3b
       0.025927547 -0.013927904 0.041064695 0.002812345
000220 76 a4 0b 3c a2 55 20 3d 80 7f d9 bd da 51 ee 3d
       0.008523097 0.039144166 -0.10620022 0.11636706
000230 af 10 93 3c 68 d9 7b 3c d3 38 50 3c 3f 6c e3 bb
       0.017952291 0.015371658 0.01270886 -0.006940394
000240 ba 02 12 3d b7 c7 95 bc bb 58 c4 3d dd 1f e5 bc
       0.03564713 -0.018283708 0.095872365 -0.027969295
000250 3e 53 ad 3c 32 f0 ac bd f9 29 df bc f0 71 ac bc
       0.021157857 -0.08444251 -0.027241694 -0.021050423
000260 db ad bd 3d 63 49 8c bd 8b c4 33 bd 00 f4 b4 3d
       0.09261676 -0.06849935 -0.04388861 0.08835602
000270 3b db 03 bd 6e a8 13 bd 4f ee e8 3b c6 8b 36 3c
       -0.032191496 -0.0360493 0.0071084867 0.011141723
000280 61 43 a4 bd a9 09 2d 3d 5d 82 c4 3d 36 cc 4e bd
       -0.08020664 0.04224554 0.09595177 -0.05048772
000290 d9 fc a6 3d e9 e9 b1 bc 94 f6 df 3c 46 df 96 3c
       0.081536956 -0.021717982 0.027339257 0.018417012
0002a0 e4 03 02 3e 49 db 01 be 7d 50 d3 bb ed 06 76 bd
       0.12696797 -0.12681307 -0.006448804 -0.0600652
0002b0 f2 18 66 bd de 12 da 3d de 55 0b be 38 df 76 bd
       -0.056176133 0.1064813 -0.13606974 -0.06027147
0002c0 39 cf 4b bd e9 4a 67 bd 01 8a 45 3c 82 5e 72 ba
       -0.04975817 -0.056467924 0.0120568285 -0.000924565
0002d0 21 63 2e bc ee 05 94 3d a3 dd 59 3c 8b e2 22 3e
       -0.010643751 0.072276935 0.013297471 0.15906732
0002e0 b8 5a 27 3d 1b fd 6a 3d 49 7f 70 3d 86 33 2c 3c
       0.040858 0.057370286 0.05871514 0.010510331
0002f0 c7 76 19 be 3d 65 60 3d 70 a3 02 3d 9a a7 ba 3d
       -0.14986716 0.05478405 0.031894147 0.09113999
000300 dc b2 3e 3d 9e 75 e7 3c 3c a7 56 bc 26 b6 b8 3c
       0.046557292 0.028254326 -0.013101395 0.022547793
000310 87 f8 83 3c 46 e4 eb 3d b8 bd 9b bd 8d 78 67 bd
       0.016109718 0.11518149 -0.07604545 -0.05651145
000320 8c 07 3b 3d 43 40 d7 3c 1d 52 09 3d 82 29 f1 3c
       0.045661494 0.02627576 0.033525575 0.029438738
000330 21 0b 1b 3e fd 77 fa 3c 63 cc d5 bc 3f 3a b0 3d
       0.15140964 0.030574793 -0.026098436 0.086048596
000340 45 4a 13 bd 30 e9 32 3d cd ec 0e 3d f1 28 c0 3d
       -0.0359595 0.043679416 0.0348938 0.09382809
000350 5c e0 ad 3d df d8 a4 3d 66 32 bd 3c 95 72 a4 3c
       0.08490059 0.080491774 0.02309532 0.020074168
000360 36 e7 51 3d 7e 18 dd 3d 09 e6 6c bd e5 c0 d4 3d
       0.05124589 0.10795687 -0.057836566 0.10388354
000370 2b 2b 5b bd b8 c8 85 bd 8d 23 ef 3d ff 9c d1 3d
       -0.053507965 -0.06532425 0.11676703 0.10235023
000380 d0 d2 08 3d c9 8e 8c bd a0 da 7c 3c dd 08 26 3d
       0.03340417 -0.068631716 0.015432984 0.040535796
000390 06 f2 09 3e fb 28 af 3d 87 37 c1 3d 5d ae 83 3d
       0.13471231 0.08552738 0.09434419 0.064297415
0003a0 32 3d be 3d 7f 7d 5d 3d 05 bd 48 3d e3 1e 9b bd
       0.09289016 0.05407476 0.049008388 -0.075742505
0003b0 8b 20 82 b5 61 62 9c 3d ec 72 21 3d c1 c4 55 bc
       -9.695226e-07 0.07635952 0.03941624 -0.013047398
0003c0 a4 84 38 3d 7e ff 2f 3c e7 11 75 bd cf 37 83 bc
       0.04504837 0.010742066 -0.059831526 -0.016017823
0003d0 e1 62 e8 bd 96 75 5f bd f1 b6 aa 3d b4 f2 1f bd
       -0.11346985 -0.054555498 0.083356746 -0.03904982
0003e0 c3 32 35 3d ed 2b 1b bc 01 e7 0c bd eb 9e 02 be
       0.044237863 -0.009470922 -0.03439999 -0.12755935
0003f0 ef e1 e2 bc e4 69 36 3d 94 c2 7b 3d e8 f7 ca 3d
       -0.027695624 0.04453458 0.06146486 0.099105656

res_block1.fc.bias f4 [256]
000000 fd 1a df 3d 5e 8a f8 bb d4 08 99 3d c8 72 e8 bc
       0.108938195 -0.007584854 0.07472387 -0.028375044
000010 98 9b 16 bd b3 d7 b0 3c 01 a5 6a bd 6d e6 16 bd
       -0.03676948 0.021587228 -0.057286266 -0.036840845
000020 38 94 c3 bc cb 68 e2 3d cf 26 11 3c 05 8b 26 3e
       -0.023874387 0.11055144 0.00885935 0.16263969
000030 8d 6e cd 3c ff 2b 94 3d c8 54 db bb 32 7e e0 bb
       0.025077129 0.07234954 -0.0066934563 -0.006850981
000040 b0 30 68 3c 57 ac cb 3d 8a e5 9c bd f7 ec 2e 3d
       0.014171764 0.099449806 -0.076609686 0.042706456
000050 73 fe f4 bd cf 7e b2 3d f8 a2 cd 39 15 d5 18 3d
       -0.11962595 0.08715593 0.00039222068 0.037312586
000060 9b dc 79 bd 9e ca a8 3c c1 0a 8a 3d 22 e9 41 bd
       -0.0610014 0.020604428 0.067403324 -0.047341473
000070 94 08 df bd 32 95 04 3d 5b 7d 29 bb a9 4f 90 3a
       -0.10890308 0.032368846 -0.0025862071 0.0011010069
000080 2f 7d bd bd 69 00 20 3d 90 d1 21 bd 49 1d b0 3d
       -0.092523925 0.03906289 -0.039506495 0.08599336
000090 fc d6 6b 3d 6f 02 b0 3d e6 14 06 3d ca fb 7c 3d
       0.057578072 0.08594214 0.032734774 0.061763562
0000a0 41 57 a5 bc 3b c7 6d bc 9c a0 97 3d cc 8d 22 bd
       -0.020183207 -0.014512832 0.07403681 -0.03968601
0000b0 24 a1 55 bd 06 19 4f ba 67 aa 2a 3d 1a 08 2a 3c
       -0.05215563 -0.0007900152 0.041666415 0.010377908
0000c0 53 f6 55 bd 6f 8a ca 3d cf 71 07 bd a4 1b c5 3d
       -0.052236866 0.09889685 -0.03306752 0.09624413
0000d0 99 87 7e bb fc b9 4b 3d 55 43 aa 3b 0d 9e 21 3c
       -0.0038838147 0.049737915 0.005196015 0.009864342
0000e0 85 f1 1a bd 6b db 38 3d e4 f4 9c 3d c6 b5 78 3d
       -0.037827987 0.04513113 0.07663897 0.060720228
0000f0 7a 00 86 3d b9 a3 d1 3d b5 d0 b6 3c 03 78 46 be
       0.0654306 0.10236306 0.022316316 -0.19381718
000100 c7 7a 5f 3d c6 0c ec 3c b2 2e 7e bd 62 6a 37 3d
       0.05456045 0.028814685 -0.06205625 0.04477919
000110 39 84 68 3d a5 e2 4d 3d 52 00 c9 bd 6f 8d 1d be
       0.056766722 0.050264973 -0.09814514 -0.15385984
000120 04 ae 00 bc c1 b4 2c 3d 99 5d c7 bb ac 1c 8a bd
       -0.007853989 0.042164568 -0.0060841558 -0.0674375
000130 e9 1c 4f bd 6f b9 fe 3b 06 99 7d 3d c6 31 bb 3c
       -0.05056468 0.0077735703 0.061913513 0.022850882
000140 27 00 88 3d 23 e8 ff 3c 97 0a 01 3b e8 50 47 3d
       0.06640654 0.031238621 0.001969015 0.048661143
000150 63 e2 ff 3c f0 2e 41 3d 92 ea 96 bd e3 c0 89 3c
       0.03123588 0.047163904 -0.073689595 0.016815608
000160 27 a5 61 3d 33 9a 9c 3d 45 3e 42 3d e2 e4 ed 3d
       0.055089142 0.07646599 0.047422666 0.116159216
000170 c8 f5 de bc 4c ab 2a bd 37 64 d7 3d 6d c6 66 3d
       -0.027216807 -0.041667268 0.10517161 0.056341577
000180 59 d9 3c 3d 8f 4e 36 3d b4 ae a3 3c 03 ea 26 bd
       0.046105716 0.044508513 0.019980766 -0.040750515
000190 0a c7 45 bd 08 36 bd 3d 41 56 3c 3d 9c 6d 57 3c
       -0.04828552 0.09238821 0.045980696 0.0131486915
0001a0 e7 8f c0 3d 99 69 8a 3d 37 ec 68 bc b1 49 48 bd
       0.09402447 0.067584224 -0.014216474 -0.048898403
0001b0 6e a3 9d 3c 8e 33 06 bd 56 e3 8a 3d 24 32 1e 3d
       0.019242968 -0.03276401 0.06781642 0.038622037
0001c0 6b 9a 84 3d ab 78 b7 3d 7a e2 2a 3d d1 5e 4e bd
       0.064747654 0.089585625 0.04171989 -0.050383393
0001d0 84 96 15 bc 66 7f 5b bd 68 de 3a bd 0e 76 87 bc
       -0.009130124 -0.053588293 -0.04562226 -0.016535785
0001e0 df a1 ec 3c 05 02 c8 bc 85 7a 70 3c 37 7f 9e bd
       0.02888578 -0.024415025 0.014677648 -0.07739108
0001f0 62 08 53 3d ca 59 b2 ba c4 8a 05 be 8b 7a ae bc
       0.051521666 -0.0013607081 -0.13041216 -0.021298667
000200 1f 23 a9 3c b2 1d 49 be ee 6c a0 bc b4 3a 60 be
       0.02064663 -0.19640234 -0.019583192 -0.21897393
000210 d2 cf e0 3c 25 df e5 3d e3 84 2a bd f0 bc 81 3b
       0.027442846 0.11224202 -0.041630637 0.0039592907
000220 e0 6e 1f 3d bd 5a a8 bc f2 53 0d 3d 70 7c 18 3d
       0.038924098 -0.02055108 0.034503885 0.037228048
000230 f1 2a 16 3d eb 2a 9d bc 95 e3 01 3d 81 9d cd 3d
       0.036662046 -0.019185504 0.03171118 0.10039807
000240 5d d4 fa bd 51 ba 59 bd 80 7a c6 3d 53 59 59 3d
       -0.12247536 -0.0531562 0.09691334 0.0530637
000250 ae 3a 97 3d 31 05 88 bd 66 1d 02 3d a2 4f 11 3d
       0.07384239 -0.06641615 0.031766318 0.035476334
000260 18 45 3a 3d 81 e6 58 3c a8 ae d8 3d 6a 20 7c 3d
       0.04547605 0.01323855 0.10580188 0.06155435
000270 b9 1b 61 3d 28 5d 31 3d e3 25 85 bd b8 a5 26 3d
       0.05495808 0.04330173 -0.06501367 0.040685385
000280 78 f9 2a be 4d 5d b7 3c 45 45 8e 3c d6 fd 00 3c
       -0.16696727 0.022383356 0.017367015 0.007873019
000290 f3 7c 9c b9 e1 7d bc bd bf a3 6a bd 0d a5 82 3d
       -0.00029847733 -0.09203697 -0.057285067 0.06379137
0002a0 dc 52 72 bc 13 b3 82 bd 51 25 91 bd a5 95 c5 bb
       -0.014790263 -0.06381812 -0.07087196 -0.006029802
0002b0 36 99 38 bc a9 f8 be bc d1 20 19 3d a4 f7 65 3d
       -0.011266997 -0.02331193 0.03738481 0.05614437
0002c0 06 b0 63 3d d7 97 be bd 72 ad c9 bb 84 69 0b be
       0.05558779 -0.09306305 -0.0061547095 -0.1361447
0002d0 e3 2b 8a bc 34 12 f8 3c 92 bc eb bc 42 f0 b8 bc
       -0.01686663 0.030282117 -0.02877644 -0.022575501
0002e0 e1 38 02 be 86 9b 39 bd 9b 13 b5 bd 29 b6 a8 bd
       -0.1271701 -0.045314334 -0.0884163 -0.08237869
0002f0 d7 a4 dc bd 51 0f e3 3d 52 cd 0d bb 71 ef 75 3b
       -0.10773628 0.11086906 -0.0021637273 0.0037526751
000300 86 57 d5 bd 66 e9 65 bc a2 d6 03 3d c3 1a 49 3d
       -0.104170844 -0.014032697 0.03218711 0.049097788
000310 e7 33 2e 3d c4 a4 30 3d fc f3 38 3d c1 66 e0 bb
       0.042529967 0.043125883 0.045154557 -0.0068481867
000320 c1 eb 00 3d 10 8a 9f 3d bc 43 d8 bb 07 b9 d3 bb
       0.031474832 0.07790005 -0.0065998714 -0.006461266
000330 f6 47 e5 bd d0 d0 09 be 26 46 b9 3d d5 34 a7 3d
       -0.11195366 -0.13458562 0.09046583 0.08164374
000340 36 05 7e bc 76 7f 10 bc 92 90 3e bd 5a 3b a7 3c
       -0.015504172 -0.008819452 -0.04652459 0.020414043
000350 eb 4b c3 3d 26 b2 cc bd d2 75 07 3e f3 e9 c5 3d
       0.095359646 -0.099949166 0.13228539 0.09663763
000360 d8 8f a6 3b f5 ad fd 3b 53 39 0d 3d a1 64 1b be
       0.0050830655 0.0077416846 0.034478497 -0.15175106
000370 ab 0a cb bc c1 ff 00 ba 82 47 7f 3d 0d 07 e8 3d
       -0.02478536 -0.0004920923 0.062324055 0.1132947
000380 a4 b5 d5 bc 2c 71 a1 3d 06 11 91 3d 97 ac b6 3b
       -0.02608759 0.07882914 0.07083325 0.0055747735
000390 0b b9 90 3d b0 b4 3c be 41 1a 97 3d da 5a d0 3d
       0.07066544 -0.18428302 0.073780544 0.101735786
0003a0 0a 5b 29 3c 08 20 30 3d 8b 94 0f 3c fb df d3 bd
       0.010336647 0.042999297 0.008763443 -0.10345455
0003b0 88 2f f3 3c 18 65 38 bc 39 17 48 3d d5 ab b5 3d
       0.02968575 -0.011254571 0.04885027 0.08870665
0003c0 8b ea 85 bb 49 9f 0b 3d d5 91 f3 3c ef 30 04 3d
       -0.0040867976 0.034087453 0.029732624 0.03227323
0003d0 5c 8e 84 bc c9 96 0c 3e 91 14 7b 3d cd 00 42 3d
       -0.016181163 0.13729395 0.06129891 0.047364045
0003e0 2e d8 47 bd b0 19 54 3d f0 8f 8a 3d b5 fc c1 bc
       -0.04879015 0.05178231 0.06765735 -0.02368007
0003f0 79 37 ee 3b 59 25 a5 3d 42 28 21 3d 21 76 e2 bc
       0.0072697964 0.08063764 0.039345033 -0.027644219

res_block1.ln.weight f4 [256]
000000 5e ea 33 3f 98 39 4c 3f 9f 62 72 3f 7f 70 47 3f
       0.7027949 0.7977538 0.94681734 0.7790603
000010 34 06 22 3f db 6c 6e 3f df 7e 8e 3f 78 0a 5e 3f
       0.63290715 0.9313485 1.1132468 0.86734724
000020 d9 dd 4c 3f db ca 0c 3f f6 8c 2f 3f ce b6 ec 3e
       0.8002601 0.5499703 0.68574464 0.4623322
000030 e1 42 61 3f 89 8f 89 3f 1f 1b 55 3f 87 6a 6e 3f
       0.87992674 1.0746928 0.8324451 0.931313
000040 b1 9a 82 3f 7a 01 1a 3f 7e 35 6b 3f 42 51 8c 3f
       1.0203458 0.60158503 0.918785 1.0962298
000050 75 d7 86 3f 69 63 85 3f 59 c6 61 3f 60 86 7d 3f
       1.0534502 1.0420963 0.8819328 0.99033165
000060 f0 07 3b 3f d6 83 58 3f 0b aa 60 3f f9 76 7b 3f
       0.73058987 0.84576166 0.87759465 0.9822841
000070 5f af 96 3f a7 a7 5f 3f 44 e1 5b 3f 2f 28 81 3f
       1.1772269 0.8736519 0.85890603 1.0090388
000080 1f 9e 9d 3f 28 27 45 3f f9 d3 11 3f d9 4d 6e 3f
       1.231388 0.7701287 0.5696407 0.93087536
000090 97 af 83 3f 8f 48 7c 3f 15 0f 6a 3f de 6b 54 3f
       1.0287961 0.98548216 0.91429263 0.8297709
0000a0 0a 97 40 3f 8f 28 5f 3f e6 9b 59 3f 46 8a 18 3f
       0.7523047 0.8717126 0.8500351 0.5958599
0000b0 88 8c 71 3f 82 d6 6f 3f 28 2c 75 3f 13 d0 5c 3f
       0.9435506 0.9368669 0.957705 0.86254996
0000c0 91 1c 30 3f 45 4c 41 3f fb 63 3a 3f ea a6 4c 3f
       0.6879359 0.75507003 0.7280881 0.7994219
0000d0 3a 45 68 3f 1f 8d 64 3f 9f 26 6f 3f b0 aa 85 3f
       0.9073063 0.89277834 0.93418306 1.0442715
0000e0 ff eb 69 3f b0 03 3d 3f ae ad 58 3f c3 39 28 3f
       0.91375726 0.7383375 0.84640014 0.6571314
0000f0 f3 99 82 3f a5 ef 6a 3f 22 ff 6d 3f 02 49 93 3f
       1.0203232 0.9177192 0.92967427 1.1506655
000100 c9 d5 2e 3f c2 50 6d 3f f0 e5 5c 3f 8a 34 61 3f
       0.6829496 0.9270135 0.86288357 0.87970793
000110 79 85 6f 3f c9 ed 7b 3f f3 40 79 3f 16 92 9f 3f
       0.9356304 0.98409706 0.9736473 1.2466457
000120 77 73 71 3f 06 1b 64 3f 2e 2d 6b 3f 11 f2 88 3f
       0.9431681 0.89103734 0.91865814 1.0698873
000130 56 f1 5a 3f 34 98 78 3f 2e 15 6d 3f 92 f0 83 3f
       0.855245 0.97107244 0.9261044 1.0307791
000140 67 0c 61 3f 3a 51 83 3f 6c 7f 39 3f 30 9b 36 3f
       0.8790955 1.0259163 0.72460055 0.7133055
000150 65 ee 89 3f e4 ec 55 3f bf 0d 70 3f 5e b9 86 3f
       1.0775877 0.8356459 0.93770975 1.052532
000160 ab 01 57 3f da 07 66 3f 8f 3b 73 3f 37 82 67 3f
       0.8398692 0.8985573 0.95012754 0.9043307
000170 e1 08 8c 3f fa c8 1d 3f 4e 97 85 3f dc dc 85 3f
       1.094021 0.6163479 1.04368 1.0458026
000180 62 dd 7f 3f 79 85 60 3f 30 5d 7c 3f 8d 01 74 3f
       0.9994718 0.87703663 0.9857969 0.95314866
000190 23 28 5a 3f 46 31 88 3f 23 b5 86 3f 5e 82 6f 3f
       0.85217494 1.0640037 1.0524029 0.935583
0001a0 0e 4d 7c 3f 67 8d 65 3f f1 02 6b 3f c8 ae 90 3f
       0.98555076 0.8966889 0.91801363 1.1303339
0001b0 52 5a 4d 3f 7d b3 69 3f ae 9e 80 3f d4 4d 58 3f
       0.8021594 0.912895 1.0048425 0.84493756
0001c0 4e fa 79 3f 12 25 71 3f 16 86 66 3f b0 91 69 3f
       0.9764756 0.9419719 0.9004835 0.91237926
0001d0 8a 0a 64 3f e6 1e 57 3f 20 c7 77 3f 2e 66 93 3f
       0.8907858 0.8403152 0.96788216 1.1515558
0001e0 1d 10 6c 3f 7e 4c 7e 3f 43 67 48 3f 4a 5b 8a 3f
       0.92212087 0.9933547 0.78282565 1.0809109
0001f0 b9 5f 68 3f 9d 8e 5d 3f ef 7a 7b 3f 82 bd 82 3f
       0.9077106 0.86545736 0.98234457 1.0214083
000200 48 8c 65 3f e5 17 8a 3f 7a 61 60 3f bf 24 a8 3f
       0.8966718 1.0788542 0.8764874 1.3136214
000210 55 20 57 3f 0f 98 6b 3f 85 19 6c 3f 7e bc 96 3f
       0.8403371 0.920289 0.9222644 1.1776273
000220 57 ef 56 3f 8e 48 6d 3f 55 15 4b 3f 25 b0 88 3f
       0.83958954 0.92688835 0.79329425 1.0678755
000230 a1 6e 60 3f 4b 3a 61 3f ce de 43 3f d2 6f 68 3f
       0.87668806 0.87979573 0.7651185 0.90795624
000240 ab f6 97 3f fa 60 47 3f f9 43 71 3f a9 b6 5d 3f
       1.1872152 0.7788235 0.94244343 0.8660684
000250 6b ac 5b 3f 30 19 44 3f 86 fb 52 3f f5 e0 80 3f
       0.85809964 0.76600933 0.82415044 1.0068651
000260 24 79 2a 3f cb 5e 67 3f 54 d5 7d 3f de 7d 3a 3f
       0.66591096 0.9037902 0.9915364 0.7284831
000270 21 58 55 3f c2 63 40 3f 5c 35 47 3f 41 e6 30 3f
       0.833376 0.7515222 0.77815795 0.6910134
000280 2d c4 75 3f 35 a0 82 3f 07 ba 43 3f 53 cc 54 3f
       0.96002465 1.0205141 0.7645573 0.83124274
000290 76 eb 56 3f 0b b2 83 3f 83 87 47 3f 01 f5 66 3f
       0.83953035 1.0288709 0.7794115 0.90217596
0002a0 3c 74 88 3f 15 4a 8c 3f 9e 0c 5f 3f 69 f4 5b 3f
       1.0660472 1.0960108 0.8712863 0.85919815
0002b0 40 ba 68 3f 8c 3d 7e 3f a5 5f 75 3f 26 8b 71 3f
       0.90909195 0.99312663 0.95849067 0.9435295
0002c0 79 c2 6c 3f b3 de 53 3f 85 e6 51 3f eb 6e 86 3f
       0.9248424 0.8276169 0.8199237 1.05026
0002d0 b0 d0 63 3f 65 3f 5c 3f 75 ac 69 3f 5b 10 63 3f
       0.88990307 0.8603423 0.91278774 0.8869683
0002e0 12 24 84 3f 02 e3 83 3f 01 50 5c 3f 1b 2a 94 3f
       1.0323508 1.0303652 0.86059576 1.157535
0002f0 ea a9 9c 3f e6 5f 5b 3f 7f 95 37 3f 03 66 74 3f
       1.2239354 0.85693204 0.7171249 0.9546816
000300 f2 89 79 3f 56 b4 6d 3f a8 21 7c 3f 8c 9f 52 3f
       0.9747611 0.92853296 0.98488855 0.822747
000310 a4 34 3d 3f 5a af 5b 3f 3c 40 66 3f 4f eb 53 3f
       0.7390845 0.8581444 0.89941764 0.8278093
000320 ed df 78 3f a7 1b 81 3f 9d 9b 3f 3f 2e 76 61 3f
       0.97216684 1.0086564 0.7484682 0.8807095
000330 8f 18 7e 3f 88 b8 8d 3f ed 3a 67 3f 25 e7 7c 3f
       0.99256223 1.107194 0.9032429 0.987902
000340 0f 71 85 3f e9 b0 69 3f 38 50 6d 3f 6e ac 6c 3f
       1.0425128 0.9128557 0.9270053 0.92450607
000350 41 25 61 3f be 7e 7c 3f f7 67 51 3f 13 be 49 3f
       0.8794747 0.98630893 0.8179926 0.78805655
000360 b3 f2 74 3f 1c 02 78 3f 4e 6e 33 3f a1 9d 81 3f
       0.9568283 0.9687822 0.70090187 1.012623
000370 7d 27 8a 3f 16 31 70 3f 80 c7 41 3f 78 c4 3d 3f
       1.0793301 0.938249 0.7569504 0.7412791
000380 66 57 a5 3f c1 30 52 3f 22 b3 35 3f 49 77 5b 3f
       1.2917297 0.8210564 0.7097646 0.8572889
000390 68 8f 73 3f 2a b4 86 3f 8f a5 6c 3f 97 c5 72 3f
       0.95140696 1.0523732 0.9244012 0.9483275
0003a0 0d 7c 56 3f 0c 34 61 3f 8a 34 5e 3f aa 23 99 3f
       0.83783036 0.8797004 0.8679892 1.1964009
0003b0 15 1f 85 3f 29 a2 5a 3f ee 90 5c 3f da 08 53 3f
       1.040011 0.85403687 0.86158645 0.8243538
0003c0 3d 6d 8a 3f 37 e4 7c 3f d7 a9 3d 3f 1a 6e 7c 3f
       1.0814587 0.9878573 0.7408728 0.986055
0003d0 db a1 50 3f 1d d5 71 3f 80 da 81 3f e9 ca 7e 3f
       0.8149697 0.9446581 1.0144806 0.99528366
0003e0 f8 18 26 3f bc 50 70 3f 6c b9 56 3f e8 79 8e 3f
       0.6488185 0.9387319 0.8387668 1.1130953
0003f0 1e 27 58 3f ad f9 3b 3f 9e 93 73 3f 1b 62 5e 3f
       0.8443469 0.7342785 0.9514712 0.8686845

res_block1.ln.bias f4 [256]
000000 a3 73 89 bd f4 46 bb bd 96 60 98 bc 69 43 f4 bd
       -0.06711509 -0.091443926 -0.018600743 -0.1192692
000010 84 43 8a be d1 38 ca bd f9 b9 14 be 19 d6 27 be
       -0.27004635 -0.09874118 -0.14524068 -0.16390266
000020 fd 59 2e be 5b e7 aa be 58 7a de bd 74 3c 72 be
       -0.17026515 -0.33379635 -0.10863179 -0.23655874
000030 6d ce 6b bd e1 84 5d bd 21 88 0b be 0c bb 18 be
       -0.05756991 -0.0540818 -0.13626148 -0.14915103
000040 43 e7 1a bd 4d c2 4c be 46 e9 30 be 53 1b 9b bd
       -0.037818205 -0.19995995 -0.17276487 -0.07573571
000050 c6 5d 3f be 2b 65 c0 bc 61 4b e5 bd 16 58 cd bd
       -0.18688115 -0.02348574 -0.11196018 -0.10026567
000060 f9 8a 2b be a1 13 46 be 53 45 a1 bd 13 64 18 be
       -0.16752233 -0.19343425 -0.07874551 -0.14881925
000070 a0 f4 fb bd 5a dc 0e be 05 82 35 be 8f 2d 89 bd
       -0.12302518 -0.13951245 -0.1772538 -0.06698143
000080 75 6b 5a be 66 db d5 bd 2d 20 8b be 67 3a b5 bd
       -0.21330054 -0.104422376 -0.27172986 -0.0884903
000090 5e eb a7 bd f5 79 d1 bd dc 47 8e bd c6 d4 9c bd
       -0.081991896 -0.102283396 -0.069473 -0.07657771
0000a0 15 3e 2a be b1 3d 35 be 6a 78 2c be 8b 63 a9 be
       -0.16625245 -0.17699315 -0.1684281 -0.33083758
0000b0 93 65 32 be a8 16 cd bd 4c 60 c2 bd b1 5b 2f be
       -0.1742156 -0.10014087 -0.094910234 -0.17124821
0000c0 e9 5d 98 be 4f 80 85 be c0 d9 0e be 83 8d 2c be
       -0.29759148 -0.26074454 -0.13950253 -0.16850857
0000d0 8f 0b 2c be 8c 10 bc bd 3d 9a d9 bd 45 11 e4 bd
       -0.16801284 -0.091828436 -0.10625122 -0.111361064
0000e0 32 7d f8 bd 8d 57 e2 bd 11 95 3e be a5 5b 8a be
       -0.12133254 -0.11051855 -0.18611552 -0.27023044
0000f0 a2 06 1a 3c 3e 7b 0f be 4a 48 21 be 4d 66 82 be
       0.009400995 -0.14011857 -0.15750232 -0.25468674
000100 f3 0b 56 be 2b aa a5 bd 85 67 fb bd 60 82 d4 bd
       -0.20902996 -0.080890976 -0.12275604 -0.103764296
000110 15 08 24 be 03 b1 55 bd b0 db 1a be de a3 7d be
       -0.16018708 -0.052170765 -0.15122867 -0.24769542
000120 84 fd 11 be 47 2e 33 be 66 73 c4 bd b7 f9 2b be
       -0.14256865 -0.17498122 -0.09592323 -0.16794477
000130 77 66 eb bd c4 b4 ec bd 9d bf 02 be d4 2e 02 be
       -0.11494153 -0.11557916 -0.12768407 -0.12713176
000140 85 8c 2b be 68 a1 22 bd d4 7d ec bd bf ca 88 be
       -0.16752823 -0.03970471 -0.11547437 -0.26717183
000150 e1 1d 90 bb ad ce 78 be 37 ff 2e be 4a 6d 54 bd
       -0.004398093 -0.2429759 -0.17089544 -0.05186204
000160 57 b9 15 be 05 8e 12 be 34 1b 7d bd db 0e e8 bd
       -0.14621483 -0.14311989 -0.06179352 -0.113309585
000170 af 65 49 bc 39 86 c4 be 40 50 92 bc 2b 62 99 bd
       -0.01229231 -0.38383654 -0.017860532 -0.07489427
000180 ee 2b 4e bc 7a 63 d4 bd a3 1b 06 be 26 00 25 be
       -0.012583716 -0.10370536 -0.1309648 -0.16113338
000190 5f 19 69 be a8 9a a5 bc 0b 92 8d bd f4 97 73 be
       -0.22763585 -0.020215347 -0.06912621 -0.23788434
0001a0 46 0b c3 bd 5f 0d f2 bd cb 30 28 be d6 26 3d be
       -0.095236346 -0.118189566 -0.16424863 -0.18471846
0001b0 e1 ba 50 be 4b 47 92 bd e1 c0 45 bd 04 e9 31 be
       -0.20383789 -0.07142504 -0.048279647 -0.17374045
0001c0 40 3f 24 bc 69 77 e7 bd 68 0b 01 be 6e b8 32 be
       -0.010024846 -0.113020726 -0.12602007 -0.17453167
0001d0 bd 9e 48 be c5 6e d5 bd e0 7e 61 be 06 48 0e be
       -0.19591804 -0.10421518 -0.22021055 -0.13894662
0001e0 66 91 d2 bd 41 56 0c be 5b 26 32 be b0 3e 80 be
       -0.10281639 -0.13704778 -0.17397444 -0.25047827
0001f0 37 12 67 bd 34 90 72 bd 05 49 4f be c3 42 28 be
       -0.056413855 -0.059219554 -0.20242698 -0.16431718
000200 3f fd d0 bd 20 f8 eb bd 47 3f ce bd fc 73 80 be
       -0.10204553 -0.115219355 -0.10070663 -0.2508849
000210 1b aa dc bd 95 a4 ed bd 9d 36 9f bd 96 09 d4 bd
       -0.107746325 -0.11603657 -0.077740885 -0.10353391
000220 44 2a 5b be 9a d8 e8 bd 4f f9 03 be bc cb 7c 3c
       -0.21402842 -0.113694385 -0.12888072 0.015429433
000230 c5 cb bf bd 15 61 19 be 91 e2 78 be bb c5 07 be
       -0.09365038 -0.1497844 -0.24305178 -0.13259022
000240 c3 b6 66 be 86 f8 7f be 81 f7 b7 bd 0d e2 2d be
       -0.22530656 -0.24997148 -0.089827545 -0.16980763
000250 f8 2a e2 bd 04 22 81 be be c3 19 be 87 78 46 bd
       -0.11043352 -0.25221264 -0.15016076 -0.048454788
000260 07 88 90 be 62 e7 d0 bd 23 99 c8 bc 95 10 8a be
       -0.2822878 -0.10200383 -0.024487084 -0.26965776
000270 ad 8b 25 be 4b 69 4c be 47 76 63 be fd 42 6f be
       -0.16166563 -0.19962041 -0.22213088 -0.23365398
000280 fb ea 4c be aa fb 71 bd f2 96 51 be 79 09 a2 bd
       -0.20011513 -0.059077896 -0.20467737 -0.07911963
000290 62 cb 17 be 1c 83 16 be bb 7e 26 be 48 6a a7 bd
       -0.14823678 -0.14698452 -0.16259281 -0.081745684
0002a0 24 88 52 be 90 05 8f be 17 94 6b be 91 1c 22 be
       -0.20559746 -0.2793393 -0.2300571 -0.1583121
0002b0 e7 3e c5 bd f6 e7 3c be 0d 71 57 bd 22 f3 1b bd
       -0.09631138 -0.18447861 -0.052598048 -0.038073666
0002c0 a0 11 31 be 6e ed 5f be 8d e7 34 be 4d 5b 4b be
       -0.1729188 -0.21867916 -0.17666455 -0.19859047
0002d0 64 7e 41 be 53 d8 22 be 6a f9 05 be 4c a1 f7 bd
       -0.1889587 -0.15902834 -0.13083425 -0.12091312
0002e0 25 3b 89 be 5f 60 b7 bd a3 15 23 be 1e 48 32 be
       -0.26802936 -0.08953928 -0.15926223 -0.17410323
0002f0 5c d8 71 be 0a f8 0a be 44 af 4e be 85 42 ab bd
       -0.23617691 -0.13571182 -0.20184046 -0.08362297
000300 f4 1d 8b be 22 a0 4a be d8 9c f7 bd 58 00 0f be
       -0.2717129 -0.19787648 -0.120904624 -0.13964975
000310 37 4a 0e be 94 7b bd bd 7d a1 62 be ac c8 29 be
       -0.13895498 -0.09252086 -0.22131915 -0.16580456
000320 3e b9 09 be ef 5f b1 bd 36 93 1d be 0a ed 31 bd
       -0.1344957 -0.08660876 -0.15388188 -0.04343895
000330 c1 13 4c be 23 8b 53 be 6e 2f dd bd 6e a3 b3 bc
       -0.1992941 -0.20658545 -0.10800062 -0.021928515
000340 a8 f9 af bc f6 0a 13 be 57 81 5b be 88 73 2b be
       -0.02148135 -0.1435965 -0.21436058 -0.1674329
000350 29 15 24 bd 26 62 5a be 20 a7 aa bd 8c 35 60 be
       -0.040059242 -0.21326503 -0.08332658 -0.21895427
000360 18 69 e3 bc b0 2c 5f bd 27 05 9b be 97 8f 33 be
       -0.027760074 -0.054485977 -0.30277368 -0.17535244
000370 a6 1c cb bd fe a3 68 bd 51 91 65 be 9e 9e 24 be
       -0.09917574 -0.05679702 -0.22418715 -0.16076133
000380 98 23 b3 bd 07 7c 1c be 33 3d 8d be 17 85 35 be
       -0.08747023 -0.15281688 -0.27585754 -0.17726551
000390 dd f6 ae bd d8 81 6e be 80 c2 e0 bd 93 82 34 bd
       -0.08543179 -0.23291719 -0.10974598 -0.044069838
0003a0 ff f1 32 be 28 92 16 be 96 14 25 be 17 3e 03 be
       -0.17475127 -0.14704192 -0.16121134 -0.12816654
0003b0 f6 b3 fc bd a7 b6 67 be ef e6 aa bd 4c d2 09 be
       -0.12339012 -0.2262827 -0.08344828 -0.13459128
0003c0 f6 2a 41 be 4b e0 aa bd 8f 90 22 be 6a cf 3c be
       -0.18864045 -0.08343562 -0.15875457 -0.18438497
0003d0 65 e2 2e be 28 e1 9f bd 20 ca b9 bd c7 15 db bd
       -0.1707855 -0.07806617 -0.090717554 -0.10697513
0003e0 94 1e a3 be d6 c6 31 be 1f 10 4c be c9 bc 0c be
       -0.31859267 -0.17361006 -0.19928025 -0.13743891
0003f0 5e 13 88 bd b4 50 3a be ba 62 95 bd 06 65 30 be
       -0.06644319 -0.18194848 -0.07294221 -0.17226037

res_block2.fc.weight f4 [128, 256]
000000 4d 53 9d bd 85 1d f4 3d f1 be 90 bd af 16 38 3e
       -0.07681904 0.11919693 -0.07067669 0.17977403
000010 e9 95 f4 3d 72 3f 93 bd ee 9e 0a bc c9 4f 2b 3c
       0.119426556 -0.071898356 -0.008460743 0.010456034
000020 19 a9 39 bd 92 17 70 bd f4 3c 78 bd 20 7e 6a bd
       -0.04532728 -0.05861623 -0.060605004 -0.05724919
000030 67 78 cc 3c 1f 82 53 bd b1 a5 ab bc 06 35 f9 3c
       0.024959756 -0.051637765 -0.020953031 0.030420791
000040 33 45 50 bd 13 a4 12 3d 36 b2 3b 3d c6 bd 14 be
       -0.050847244 0.035801005 0.045824252 -0.14525518
000050 96 2f 5f 3d d0 92 ef bb ce 4f ae 3c dd 86 40 bd
       0.05448874 -0.0073112026 0.021278288 -0.047003616
000060 a9 0d ac 3d e5 81 05 3e c1 5c 6c bd 12 83 08 bc
       0.08401043 0.13037832 -0.057705645 -0.008332031
000070 57 e5 0c 3e 5e b6 a4 3d 7e 3f 5d 3e 43 6e ff bd
       0.13759361 0.08042596 0.21606252 -0.12472203
000080 af ed f9 bd 74 12 67 3d 76 39 45 3e 01 88 ce 3d
       -0.12203538 0.056414083 0.19260201 0.100845344
000090 44 cb 36 bd d0 fb e0 bb 23 2e d3 3b b5 52 4e bd
       -0.044627443 -0.006865956 0.006444709 -0.050371844
0000a0 5e 4b 3b 3e 42 fa fd ba 0e 75 67 bd be a6 08 bd
       0.18290469 -0.0019376951 -0.056508116 -0.033362143
0000b0 7a 83 cc 3d 8f bd 88 bb a4 81 95 3c 76 74 ad 3d
       0.09986015 -0.004172988 0.018250294 0.08469479
0000c0 d7 d3 8e 3d b1 97 1e 3d 8f 82 a9 3d 90 f5 be bc
       0.06973999 0.038718883 0.08276855 -0.023310453
0000d0 fa a2 e0 3c 35 2e 61 bd b3 5a 73 3d 15 7b 08 bd
       0.027421463 -0.054975707 0.05941267 -0.033320505
0000e0 89 f8 60 3c 88 21 1c 3d cc 0e 30 bc fc ca ae bc
       0.01373113 0.038117915 -0.010745715 -0.021337025
0000f0 54 0f 29 be d3 01 57 bd 21 df a8 3d 13 c1 58 3c
       -0.16509753 -0.052491974 0.082456835 0.013229626
000100 0a 41 d1 3c 30 99 2e bd 70 ea c8 3d 9f 5a 13 bd
       0.025543708 -0.04262656 0.098103404 -0.035975095
000110 dc ef 0f be 02 b7 93 bd a2 7a 89 bc a3 4f 94 bd
       -0.14056343 -0.0721264 -0.016782109 -0.07241752
000120 d7 3d 50 3d 02 a6 a2 bd b6 8f 98 b9 3c 3b 34 3e
       0.050840225 -0.0794182 -0.00029098772 0.17600721
000130 37 a4 06 3e 71 fa 21 3d e3 43 79 bc c3 46 3e be
       0.1314858 0.03954548 -0.015213939 -0.18581681
000140 4f ae 8f 3d cf 1e 33 be 25 4f e1 3d ac 2d 24 3e
       0.070156686 -0.17492221 0.11001424 0.16033047
000150 dc bd 9a be a3 ac 3f 3d 7d 31 f7 3d 9f f5 4a bd
       -0.30222976 0.0467955 0.12069986 -0.04955065
000160 4b ea d5 bb 93 e1 05 be 9b 4d 27 bd b7 e0 04 3c
       -0.006528174 -0.13074331 -0.040845495 0.008110217
000170 2c eb 83 be 00 e1 73 3d 1f 70 27 be 02 56 44 be
       -0.2576536 0.05954075 -0.16351365 -0.19173434
000180 0d 2e 4f 3c 3c 3e b5 bd 36 a4 28 bc b8 f2 85 3d
       0.012645257 -0.08849761 -0.010293057 0.065404356
000190 69 fa 2c 3d 09 7e 60 bc a2 39 07 be 59 c9 37 3e
       0.042230997 -0.013701924 -0.13205579 0.17947902
0001a0 8b 86 c4 bd 0b 58 de 3c c2 a0 93 3d 66 eb b6 bd
       -0.095959745 0.027141592 0.072083965 -0.089316174
0001b0 74 82 46 bd ae 2a 86 3c f5 92 9c bd 52 f7 d0 bd
       -0.048464254 0.016377773 -0.07645217 -0.102034226
0001c0 01 fa 03 3e a7 20 a5 bd 63 b6 ed 3c a5 c0 fc ba
       0.12888338 -0.080628686 0.029017633 -0.0019283487
0001d0 e5 bb d1 3d 93 f2 c8 3d 9a 8b 12 3e e9 bc 03 3c
       0.10240916 0.09811892 0.14311066 0.008040645
0001e0 13 9b 77 bd 7e e0 c2 3d 3e 98 fa 3c 84 3e f1 bc
       -0.060450625 0.09515475 0.030590173 -0.029448755
0001f0 78 e0 cb b9 bd fa 67 bd ab 41 0e 3d ec b7 7c 3d
       -0.0003888642 -0.056635607 0.034730595 0.06169884
000200 b3 27 9b 3d 5e 6e 36 3d 14 60 3a 3c dc 11 f0 bd
       0.075759314 0.044538848 0.011375446 -0.117221564
000210 3d 6c de 3c 42 ba ad bd bb c2 b2 3d 59 8f 83 bc
       0.027151221 -0.084827915 0.08728548 -0.016059564
000220 40 31 2f 3d 53 74 a3 3c c1 e8 59 3b fb 40 91 bd
       0.042771578 0.019952929 0.0033250304 -0.07092472
000230 24 39 a2 3d 38 73 76 3c 99 ee 88 3d 5e d5 73 3d
       0.07921055 0.015042119 0.06686134 0.059529655
000240 33 41 84 bd 14 9c a7 3d ce f2 39 bd 45 c8 ba bc
       -0.06457748 0.081840664 -0.045397572 -0.022800574
000250 70 8e c7 3d 48 ec c8 3c 75 59 84 3c 2d d1 2d bd
       0.09743965 0.02452673 0.016155938 -0.042435814
000260 d2 8f b4 bb 5f 6a 96 bd ab db 06 be 10 00 89 3d
       -0.005510309 -0.073445074 -0.13169734 0.06689465
000270 66 91 98 3d 9c 2e ef 3b 5a 2d 42 bd 9d ba 8d bc
       0.074496076 0.0072992574 -0.047406532 -0.017300898
000280 6c 2c 69 bb 64 d8 09 bb 64 9c 3a 3e 6a 6e cd 3d
       -0.0035579456 -0.002103352 0.18223721 0.100308254
000290 bc 11 93 bd 79 5d 8b bd 19 81 13 3d f4 58 5a 3d
       -0.07181117 -0.06804938 0.03601179 0.05330749
0002a0 6a bf 72 3c f0 85 ee bc 9a 99 b6 3d 57 4c 56 3d
       0.0148161445 -0.0291166 0.08916016 0.052318897
0002b0 25 2b 69 3d 9c 21 f3 3c 45 d1 88 bc b0 7f 99 3d
       0.05692591 0.029679112 -0.01670135 0.074950576
0002c0 2a d3 2d 3b 76 ad db 3d c7 16 32 3d 31 83 84 bd
       0.0026523569 0.107264444 0.043478753 -0.06470335
0002d0 04 4e b9 3d 7d 36 a1 3d 9b 09 b3 3c 67 68 b3 bc
       0.090480834 0.07871721 0.021855166 -0.021900369
0002e0 05 cb 67 3d e5 ad 8d bd fa e6 2b 3e 45 6c b3 3d
       0.0565901 -0.069179334 0.1678733 0.08760885
0002f0 7d 86 01 3d 03 0e b4 bd 2a 8a ff 3b c1 0c 43 3d
       0.0316224 -0.08791735 0.007798453 0.047619585
000300 49 dc 83 3d 73 91 3a 3d 7a 46 b6 3d ed 54 35 3c
       0.064385004 0.045548867 0.08900161 0.011067611
000310 5c 8d f1 3c fe 50 41 3d 94 f4 f4 3b 82 a2 d1 3d
       0.02948635 0.04719638 0.007475445 0.10236074
000320 db 5b be bd c7 fb d8 bd 72 75 1f bc 64 81 25 3d
       -0.09294864 -0.10594898 -0.009732591 0.0404066
000330 46 e5 ec 3d 16 31 b4 bd cd d4 c1 bc 1e df 70 3c
       0.11567168 -0.08798425 -0.023661042 0.014701633
000340 86 2f 4d bd a8 d1 bb bd 0f ef ac 3d 35 c5 7a 3d
       -0.05009415 -0.09170848 0.08444034 0.061223228
000350 f5 d4 83 bd 20 ce 1b be 50 2c b4 3d 36 2f a3 bd
       -0.06437103 -0.15215349 0.087975144 -0.07967989
000360 1f eb 99 bd 7c 9b 18 bd 20 4f fb 3c 57 ed 17 3e
       -0.07515549 -0.037257656 0.030677378 0.14836632
000370 dc 56 47 bb 34 8e e3 3d 5e d0 9e bd 0d ac 46 bd
       -0.0030416762 0.111111075 -0.07754587 -0.048503924
000380 c8 87 fc 3c cc 6f e0 3d a3 eb ed bc 5c 2a a6 bc
       0.030826464 0.109588236 -0.029043024 -0.02028387
000390 2b 9b 95 bd b7 cc 89 bd 3d 4e 91 bd 8f fc 40 bd
       -0.073049866 -0.067284994 -0.07095001 -0.04711586
0003a0 7b cf fa 3d 5e e1 8f 3d d6 d5 92 bd 80 92 8e bc
       0.12246605 0.07025407 -0.07169692 -0.017403841
0003b0 c4 09 9c 3c 6b f2 f1 3d f9 bf 07 bd 91 43 f2 3d
       0.019047625 0.11813816 -0.033142064 0.118292935
0003c0 6a 28 6f 3c 3d 7c f7 bd 91 e2 de bc 83 66 c2 3b
       0.014597038 -0.120842434 -0.027207645 0.0059326305
0003d0 e9 60 64 bd d5 09 03 bd 80 d7 a7 bc 03 9e 12 be
       -0.055756483 -0.0319918 -0.0204885 -0.14318089
0003e0 0f 55 58 3d ae 61 85 3d b6 e4 d0 3d ae 13 16 bd
       0.052815493 0.065127715 0.10199873 -0.03663986
0003f0 f1 b4 c6 3d f6 fd 81 bb b6 7b 58 bd 94 d4 37 bd
       0.097024806 -0.003967042 -0.052852355 -0.044880465
