backend/ResidualMLPmodel.pt (torch, 723178 bytes, 24 tensors)

weight f4 [256, 28]
0.5570346 -0.26155612 -0.7955543 -0.91068554 -3.554227 -0.30894992 -0.38528553 -1.2798687
0.032534983 0.17555377 0.31348318 -0.05865831 0.00010649402 -24.40415 -5.0417924 -0.41902354
-1.2516382 0.37748042 -5.8339214 -0.24432208 -0.27710092 0.259256 0.00054760743 -0.73063767
-1.000083 0.31494695 3.7855794 -0.24630329 0.31374234 -0.44529644 -0.649303 -0.031796448
-0.5522539 -0.2797257 0.5180483 -0.55962306 0.3127884 0.08269719 -0.23250438 0.51263577
-0.070500545 -0.7515659 -0.8070942 -0.6250813 -0.4855991 -0.32911277 -0.9022209 -0.020043092
-0.26443577 0.20316641 -0.0035761998 0.436951 0.038101833 0.04383063 0.60056484 -0.3209203
-0.28675818 -0.14506355 0.13160037 -0.02020935 0.43568635 0.18326266 -0.024683611 0.33547032
-0.15518214 -0.3111876 -0.110081576 0.13311557 -0.2484383 0.283117 0.3551962 -0.04693691
0.35132912 -0.29725376 0.29013214 -0.019731633 -0.08433718 0.23778656 -0.043594215 0.3603514
0.39473605 -0.13081105 -0.42869866 0.02905029 0.28071004 0.038844652 1.2352055 -0.37402573
2.0225239 -0.23724376 0.24299656 0.81712884 0.27590472 -0.06348724 -0.3528731 -0.21432738
0.31539896 8.006365 3.059592 0.42593423 1.1916071 0.20956449 3.209297 -0.00040422237
0.24987559 -0.08420795 -0.0029849585 0.1337424 0.08395836 -0.09889886 -2.2292864 -0.15947117
-0.5127056 -0.1350381 0.84978 -0.20612301 1.6221617 -0.07554982 0.13759175 1.0366907
0.057349734 -0.052814823 -0.6458147 -0.3350137 -0.060972642 4.5605044 2.1161675 0.34116265
1.1715575 -0.17082934 1.9797999 -0.06536687 0.10231427 -0.04612427 -0.024152372 0.057027478
0.6038232 -0.032645606 -2.0569859 0.13587876 -0.96141416 -0.36630613 1.8051265 -0.24206649
2.5717535 0.23245712 -0.4024874 2.0242012 0.021223508 -0.23613042 -1.030595 -0.25336644
0.38339636 5.2712374 4.7644835 0.38061997 2.0589275 0.34190774 4.51341 -0.28038645
0.2147002 -0.37864098 -0.008099971 0.35175225 0.748031 -0.16240193 -3.2675383 0.03680658
0.061637416 0.15499827 0.5336003 -0.8590935 -0.060760375 0.12331937 -0.1357415 0.23382828
-0.017427582 -0.09650598 -0.03502855 0.033666342 0.05237904 -0.104971506 0.06835381 0.11036685
-0.03051207 -0.014579328 0.17806502 0.21168788 -0.13130096 0.5902767 -0.26418555 0.016435888
-0.12787627 -0.025843615 -0.26246503 -0.11476161 0.107780516 -0.015967047 -0.029305715 -0.010575246
0.25192535 -0.060200684 0.08106908 -0.033208854 0.0724503 0.06803425 0.1514668 -0.11257681
-0.2020947 0.008092421 0.032125864 0.029610742 -0.048503187 -0.10394132 0.022457205 0.24799389
-0.2629328 -0.04653415 -0.20047593 -0.13660617 0.1612109 -0.0031956981 -0.010310363 0.09139349
0.024791734 -0.3280835 -0.099468105 -0.0007263624 -0.14226533 -0.073779605 -0.29436073 0.017198611
-0.1352598 0.05023366 0.415237 0.33156323 0.14311771 0.22273396 0.063171685 0.17219654
0.06342354 0.21765734 0.13048056 0.21775165 -0.23597181 0.20470943 -0.019119626 0.095716186
0.029253338 -0.022120591 -0.09242264 0.10122659 -0.16526602 -0.035394896 -0.09631092 -0.014499995
00000000: d299 0e3f afea 85be 72a9 4bbf b022 69bf
00000010: 7578 63c0 af2e 9ebe 2544 c5be bdd2 a3bf
00000020: 6743 053d 5ec4 333e de80 a03e b243 70bd
00000030: 8b55 df38 b33b c3c1 5d56 a1c0 418a d6be
00000040: ae35 a0bf 1d45 c13e 7caf bac0 912f 7abe
00000050: 2ce0 8dbe 34bd 843e 508d 0f3a 120b 3bbf
00000060: b802 80bf ba40 a13e ef46 7240 ee36 7cbe
00000070: d6a2 a03e e5fd e3be b938 26bf fe3c 02bd
00000080: 8360 0dbf 3538 8fbe d09e 043f 7543 0fbf
00000090: cd25 a03e 255d a93d a115 6ebe 193c 033f
000000a0: 9762 90bd 9f66 40bf ba9d 4ebf 5405 20bf
000000b0: 72a0 f8be 7881 a8be f3f7 66bf 6931 a4bc
000000c0: 2064 87be db0a 503e ad5e 6abb 0bb8 df3e
000000d0: ab10 1c3d bf87 333d 9ebe 193f aa4f a4be
000000e0: f8d1 92be 8a8b 14be 3fc2 063e 148e a5bc
000000f0: 4812 df3e 35a9 3b3e 4935 cabc c4c2 ab3e
00000100: 11e8 1ebe fb53 9fbe 7372 e1bd 734f 083e
00000110: 9c66 7ebe b6f4 903e 47dc b53e eb40 40bd
00000120: 69e1 b33e a531 98be 338c 943e 3ca4 a1bc
00000130: f9b8 acbd 527e 733e d98f 32bd fb7f b83e
00000140: d81a ca3e 55f3 05be 647e dbbe e0fa ed3c
00000150: 3ab9 8f3e 921b 1f3d 371b 9e3f 4d80 bfbe
00000160: 0871 0140 07f0 72be 17d4 783e 5b2f 513f
00000170: 6243 8d3e 9905 82bd c8ab b4be a378 5bbe
00000180: f97b a13e 121a 0041 5bd0 4340 0d14 da3e
00000190: 9586 983f 1398 563e 1f65 4d40 cfed d3b9
000001a0: 63df 7f3e 3875 acbd 4b9f 43bb c5f3 083e
000001b0: 5cf2 ab3d 7c8b cabd a1ac 0ec0 694c 23be
000001c0: ad40 03bf 6d47 0abe 2f8b 593f e911 53be
000001d0: ffa2 cf3f ddb9 9abd dae4 0c3e 48b2 843f
000001e0: 8ee7 6a3d 5b54 58bd 1d54 25bf ea86 abbe
000001f0: 73be 79bd a7ef 9140 4a6f 0740 dfac ae3e
00000200: 99f5 953f e3ed 2ebe 156a fd3f 11df 85bd
00000210: 258a d13d cdec 3cbd 32db c5bc a595 693d
00000220: 2894 1a3f 66b7 05bd a8a5 03c0 cd23 0b3e
00000230: 3d1f 76bf 7a8c bbbe 630e e73f 47e0 77be
00000240: 9c97 2440 3d09 6e3e d412 cebe 838c 0140
00000250: ecdc ad3c 2ccc 71be 89ea 83bf 3fb9 81be
00000260: 874c c43e faad a840 a676 9840 9fe0 c23e
00000270: 78c5 0340 880e af3e db6d 9040 d08e 8fbe
00000280: 5fda 5b3e 3bdd c1be beb5 04bc df18 b43e
00000290: f67e 3f3f b14c 26be 591f 51c0 7fc2 163d
000002a0: 8477 7c3d deb7 1e3e 079a 083f 8ded 5bbf
000002b0: dfdf 78bd de8e fc3d d2ff 0abe ae70 6f3e
000002c0: 4ac4 8ebc eda4 c5bd 197a 0fbd b8e5 093d
000002d0: 678b 563d 4dfb d6bd 15fd 8b3d 0408 e23d
000002e0: 73f4 f9bc 22de 6ebc ad56 363e b5c4 583e
000002f0: c273 06be 601c 173f 5443 87be 8ea4 863c
00000300: fff1 02be fdb5 d3bc d161 86be 2308 ebbd
00000310: 08bc dc3d 53cd 82bc 8a12 f0bc cc43 2dbc
00000320: 5cfc 803e fe94 76bd 8c07 a63d 0206 08bd
00000330: d360 943d 8a55 8b3d 1d1a 1b3e ac8e e6bd
00000340: eaf1 4ebe 1396 043c 6996 033d 3a92 f23c
00000350: 47ab 46bd 30df d4bd 2cf8 b73c 1cf2 7d3e
00000360: 219f 86be 989a 3ebd 9049 4dbe 7de2 0bbe
00000370: 7814 253e eb6e 51bb ccec 28bc 832c bb3d
00000380: 0918 cb3c 8ffa a7be efb5 cbbd 5b69 3eba
00000390: 01ae 11be c319 97bd 73b6 96be 1ae4 8c3c
000003a0: 8c81 0abe cfc1 4d3d f299 d43e a8c2 a93e
000003b0: 738d 123e 5f14 643e 2860 813d 4a54 303e
000003c0: 33e4 813d 91e1 5e3e b29c 053e 4afa 5e3e
000003d0: 98a2 71be 599f 513e c3a0 9cbc d906 c43d
000003e0: b2a4 ef3c 3e36 b5bc 1548 bdbd e34f cf3d
000003f0: 7f3b 29be 3dfa 10bd a93e c5bd 6391 6dbc

bias f4 [256]
-0.41183448 0.10084647 -0.31220877 0.22359395 0.18427902 0.066465676 0.1337586 -0.21458566
-0.0176319 -0.11801502 -0.021242416 -0.12196617 -0.004416416 0.4206633 0.0014249249 -0.2224914
0.101730205 0.21225065 0.031186972 -0.06616544 0.02245912 -0.52661854 0.19889273 0.07885191
-0.09705079 0.84637874 -0.29546136 -0.04165808 -0.9084304 -0.0020268974 -0.036168903 0.17710572
-0.108277656 -0.0043230904 -0.13695656 0.109636225 0.00555523 0.25025252 -0.38253194 0.124482565
-0.018568534 -0.19890063 -0.18191749 0.34513882 0.049717788 -0.35720664 0.35999954 0.17285466
0.23270977 0.45830774 0.15159363 -0.23513737 0.030680988 -0.40729105 -0.020275021 0.114163965
-0.48952082 -0.011012659 0.18685848 -0.41913444 -0.08991997 -0.2202832 0.049750157 -0.25041676
-0.11208604 0.16550583 -0.14822966 0.20200135 0.05333217 -0.11197142 0.14188585 0.07941776
0.40973097 -0.053735536 -0.026171273 0.04170168 0.017760184 0.012640674 0.1823286 0.037759863
-0.040625382 0.14905107 0.016291447 0.041704394 0.42590946 0.09206532 0.22051525 0.18695468
-0.21816903 0.18535596 0.041165847 0.07634848 0.66211843 0.1064105 0.18517585 0.16186202
-0.12520853 -0.31495592 0.072663955 0.13260493 -0.24073084 0.19356117 0.23241495 0.5707323
0.34854504 -0.10899322 0.15048529 0.014647366 -0.23359467 0.4114496 0.07745957 -0.11423995
-0.06754593 0.034232374 0.13335167 0.039614305 -0.024394147 0.2939954 0.29328755 -0.18027793
0.26241386 -0.2085511 -0.07862162 -0.00035962614 -0.054729808 -0.6037443 -0.5208136 -0.22229025
0.14824288 -0.1900045 0.24432808 0.6651501 -0.08462862 -0.29233247 0.19246146 -0.16012023
0.68802774 -0.113353215 -0.0072889333 0.3581647 -0.14118949 0.3210768 -0.271028 0.15985385
0.07023983 0.06041642 -0.117600836 -0.21717395 0.14047864 -0.43397105 0.30496803 0.10744401
-0.074433565 0.1990129 -0.10758712 0.4319467 0.20029865 -0.503421 -0.23677184 -0.24879049
-0.7151781 -0.31312016 -0.40028977 -0.18437707 0.19902816 -0.094022006 -0.07101859 0.2214392
-0.38624305 0.2583939 -0.13217323 0.37742734 -0.20714466 0.4918602 0.29752886 0.17818695
-0.09750805 -0.064974554 0.3190485 -0.009007911 -0.30946296 -0.40347546 -0.035236083 -0.05076454
0.5005219 -0.010204007 0.107836545 -0.13900198 -0.62575567 -0.07500585 0.086306185 -0.34475774
-0.0035841193 -0.18446027 -0.30824935 0.30875838 -0.33640724 0.030503254 0.062471274 0.010332596
0.12579477 0.38636187 -0.13873766 0.34028894 0.00040164174 0.165929 -0.23802353 0.13122019
-0.011291113 -0.10604309 -0.12318186 0.30301946 -0.29966456 0.1541492 -0.2816811 -0.3325231
-0.009486797 0.23791127 0.11329877 0.15815163 -0.20948806 -0.039074473 0.01917329 0.23575418
0.24155527 0.057887863 0.33501995 0.50403076 -0.016031884 0.24329905 -0.04489456 -0.07564484
-0.070864886 -0.05014284 -0.0031078318 -0.20210819 0.1783757 0.18197526 -0.101139076 -0.11140105
0.28905937 0.10458571 0.017447436 0.08187329 0.55144805 -0.18991071 0.13918032 0.2485064
-0.20710377 -0.40960976 0.08593281 -0.06003957 0.43627724 -0.08733128 0.32787877 0.030573629
00000000: f8db d2be 9888 ce3d d4d9 9fbe d0f5 643e
00000010: a4b3 3c3e 281f 883d 04f8 083e 58bc 5bbe
00000020: c670 90bc dcb1 f1bd 9304 aebc 66c9 f9bd
00000030: 95b7 90bb 2e61 d73e 8cc4 ba3a c9d4 63be
00000040: ed57 d03d 3c58 593e d27b ff3c bf81 87bd
00000050: 30fc b73c 79d0 06bf 89aa 4b3e 1c7d a13d
00000060: 91c2 c6bd 47ac 583f b646 97be aaa1 2abd
00000070: e58e 68bf b2d5 04bb d825 14bd 345b 353e
00000080: adc0 ddbd b6a8 8dbb 573e 0cbe f588 e03d
00000090: a608 b63b 1921 803e 3adb c3be b7f0 fe3d
000000a0: 0a1d 98bc 9bac 4bbe 9448 3abe 09b6 b03e
000000b0: e1a4 4b3d cae3 b6be dc51 b83e d000 313e
000000c0: 784b 6e3e 50a7 ea3e 5c3b 1b3e dac7 70be
000000d0: b256 fb3c 7488 d0be cd17 a6bc ccce e93d
000000e0: 79a2 fabe 716e 34bc d457 3f3e ca98 d6be
000000f0: f627 b8bd eb91 61be d2c6 4b3d a036 80be
00000100: 5e8d e5bd 5c7a 293e 84c9 17be 71d9 4e3e
00000110: d572 5a3d 4651 e5bd 864a 113e c7a5 a23d
00000120: 42c8 d13e cb19 5cbd 2365 d6bc 61cf 2a3d
00000130: ce7d 913c d41a 4f3c 59b4 3a3e 16aa 1a3d
00000140: cd66 26bd d8a0 183e a475 853c 3ad2 2a3d
00000150: ce10 da3e be8c bc3d c0ce 613e 0c71 3f3e
00000160: b467 5fbe f4cd 3d3e 859d 283d 985c 9c3d
00000170: 9880 293f c0ed d93d bd9e 3d3e 28bf 253e
00000180: aa36 00be e741 a1be d7d0 943d 96c9 073e
00000190: 2582 76be e634 463e 2ffe 6d3e 831b 123f
000001a0: 7f74 b23e d637 dfbd d118 1a3e 81fb 6f3c
000001b0: 7133 6fbe 86a9 d23e 1fa3 9e3d a3f6 e9bd
000001c0: 8555 8abd 3f37 0c3d 578d 083e 9c42 223d
000001d0: 3cd6 c7bc 9186 963e c929 963e c79a 38be
000001e0: 1c5b 863e 6b8e 55be 5f04 a1bd 348c bcb9
000001f0: 5d2c 60bd fd8e 1abf 0a54 05bf 0ea0 63be
00000200: fbcc 173e 8a90 42be 2431 7a3e 4747 2a3f
00000210: c551 adbd 9aac 95be 9e14 453e 8ff6 23be
00000220: 9622 303f bb25 e8bd 01d8 eebb 5d61 b73e
00000230: fa93 10be 2e64 a43e 2fc4 8abe bab0 233e
00000240: e6d9 8f3d 3577 773d b5d8 f0bd d962 5ebe
00000250: a2d9 0f3e 7431 debe c524 9c3e 9b0b dc3d
00000260: a070 98bd 0aca 4b3e a356 dcbd 1e28 dd3e
00000270: 171b 4d3e 33e0 00bf 5174 72be efc2 7ebe
00000280: e915 37bf 4951 a0be c8f2 ccbe 58cd 3cbe
00000290: 0ace 4b3e 9c8e c0bd 3272 91bd f5c0 623e
000002a0: a6c1 c5be 354c 843e 6b58 07be 283e c13e
000002b0: bb1d 54be 1ad5 fb3e b455 983e a476 363e
000002c0: 4db2 c7bd 6111 85bd 535a a33e eb95 13bc
000002d0: ee71 9ebe 5694 cebe b653 10bd 7aee 4fbd
000002e0: 3422 003f b52e 27bc 68d9 dc3d 8956 0ebe
000002f0: 8631 20bf ab9c 99bd 4cc1 b03d 1684 b0be
00000300: 8be3 6abb 27e3 3cbe dcd2 9dbe 9415 9e3e
00000310: 923d acbe f6e1 f93c e1e1 7f3d 0c4a 293c
00000320: 58d0 003e 39d1 c53e 3f11 0ebe 5a3a ae3e
00000330: 7193 d239 4be9 293e 71bc 73be 965e 063e
00000340: 5cfe 38bc 1f2d d9bd c546 fcbd 5e25 9b3e
00000350: a26d 99be 4ad9 1d3e 8138 90be 7840 aabe
00000360: 836e 1bbc 039f 733e 2f09 e83d 80f2 213e
00000370: 0a84 56be 8e0c 20bd 4e11 9d3c 8b69 713e
00000380: 445a 773e d31b 6d3d bc87 ab3e 2908 013f
00000390: 4c55 83bc 6323 793e 5ce3 37bd afeb 9abd
000003a0: 9c21 91bd 9462 4dbd c4ac 4bbb 73f5 4ebe
000003b0: 1fa8 363e b957 3a3e 0122 cfbd 3c26 e4bd
000003c0: 97ff 933e 0831 d63d eded 8e3c 2fad a73d
000003d0: b32b 0d3f f477 42be 4985 0e3e 7678 7e3e
000003e0: 0313 54be 5fb8 d1be 8bfd af3d 0dec 75bd
000003f0: bb5f df3e beda b2bd badf a73e 8c75 fa3c

weight f4 [256, 256]
-0.10040889 0.09153824 0.03706274 -0.03463799 -0.0065550944 0.018173294 -0.017601876 0.069405384
0.018699376 -0.03696317 -0.05667067 0.0033958436 -0.035678618 -0.11421644 -0.063436836 0.011708976
-0.11559824 0.06953062 -0.132194 0.14432503 0.09554142 -0.0066411924 -0.057346575 -0.015513886
0.16730238 0.09056086 0.03935951 0.018873062 -0.06819793 0.0752802 0.053362105 -0.021881294
-0.049857106 -0.032659467 0.09031149 -0.05121827 -0.0018814642 -0.1333244 0.040974446 -0.096209794
0.11280504 0.107519 -0.04698154 -0.0027668662 0.020449152 0.1406977 -0.039918363 -0.13118498
-0.22732419 -0.01506898 -0.038232293 0.022563254 -0.038659196 -0.056977496 -0.037961848 -0.11290399
0.007417442 0.016748128 -0.14459339 0.049014226 0.0680708 -0.013027957 -0.012559735 0.04828197
-0.059045788 -0.06649527 0.043827012 -0.14521584 0.1312614 0.13788722 0.063029125 0.0050617284
-0.23947512 0.059601933 0.20330986 -0.002055235 -0.016112393 0.13788208 -0.12231813 -0.03964538
0.0112220375 -0.061673276 0.13272789 -0.09100324 -0.056659847 -0.21191877 -0.057132732 0.1477362
0.021745512 0.029621614 -0.050717633 0.36221838 -0.33424535 -0.078147165 -0.095315464 0.036187712
0.07029794 -0.06382949 0.16037184 -0.09197863 0.024108872 -0.04289573 -0.0078854235 -0.23992392
-0.09807028 0.093063526 0.0654411 -0.010911233 0.0958675 -0.03532802 -0.068927 -0.0043599484
0.08297407 -0.07113973 -0.05245747 0.088693395 -0.05814507 -0.06328143 -0.03513771 0.039061483
-0.028084988 0.09746925 0.109077714 0.117208645 -0.054862846 0.011964947 -0.038333934 -0.0034411657
-0.07257576 -0.032120008 0.023055585 -0.30750638 -0.040690523 0.03287944 -0.2512822 -0.052986767
-0.464669 -0.60951656 -0.006148687 0.002202299 -0.042962406 -0.13755834 0.009248097 -0.052398715
-0.028696567 -0.07852515 0.13715865 0.06684475 -0.0666063 -0.010092362 -0.12577252 0.084607564
-0.06725437 0.013455417 -0.0085684825 -0.26298857 -0.38266227 -0.059473034 0.011559104 0.10763634
-0.05005856 -0.12270819 0.12081713 -0.25863457 0.0076395115 -0.13875993 0.03853942 -0.22152972
-0.054146998 -0.22801252 -0.012688645 0.05806887 -0.085222095 -0.071738765 -0.16052727 0.22524622
-0.029295765 -0.13161893 -0.009592765 -0.10186348 -0.06425666 0.011496668 0.04133416 0.07855672
-0.44429985 0.07933002 -0.12582718 0.081489705 0.13539425 0.03737482 -0.08066521 0.0029767524
-0.017423991 0.057661433 -0.03418939 -0.29648352 0.17166074 0.1710564 0.00418879 0.04714691
-0.16703026 -0.035556603 0.05705443 0.018313853 0.00948145 -0.0048522786 -0.030938726 -0.008799068
0.043192606 -0.022759506 0.10943706 0.010651124 0.09823702 -0.056668 0.12717643 0.011091858
0.012759345 -0.03264336 0.015165726 0.07551972 0.0034445904 -0.042023927 0.08451438 -0.056362752
-0.11137051 -0.066779904 -0.1293131 -0.003713873 -0.022283392 -0.04697867 0.09810032 -0.002665688
0.15236492 -0.012273643 0.06404039 0.070356436 -0.025389446 0.6729443 -0.033886317 0.057079297
-0.006452439 0.116984114 0.13405706 0.063880295 -0.08572691 0.011659012 -0.025165044 -0.13695496
-0.16159648 -0.0103432955 0.02410217 -0.19272506 -0.1384664 -0.219523 -0.074059755 -0.016225709
00000000: 2da3 cdbd 6778 bb3d 1acf 173d 91e0 0dbd
00000010: 1ecc d6bb 29e0 943c cf31 90bc 6924 8e3d
00000020: 6f2f 993c b166 17bd 811f 68bd cd8c 5e3b
00000030: be23 12bd 4fea e9bd 2ceb 81bd 01d7 3f3c
00000040: c5be ecbd 1266 8e3d dd5d 07be f1c9 133e
00000050: 38ab c33d 5c9e d9bb 3ee4 6abd f42d 7ebc
00000060: 5151 2b3e f977 b93d 7037 213d ae9b 9a3c
00000070: 5bab 8bbd 812c 9a3d 3992 5a3d 6640 b3bc
00000080: f736 4cbd efc5 05bd 3bf5 b83d 40ca 51bd
00000090: 769b f6ba 3186 08be d2d4 273d a409 c5bd
000000a0: 5406 e73d ec32 dc3d b76f 40bd 5054 35bb
000000b0: fb84 a73c 0f13 103e 7081 23bd 5b55 06be
000000c0: acc7 68be e2e3 76bc 7799 1cbd 93d6 b83c
000000d0: 1b59 1ebd 3c61 69bd e27d 1bbd 353a e7bd
000000e0: 030e f33b 5f33 893c 4a10 14be 24c3 483d
000000f0: b468 8b3d 3673 55bc 59c7 4dbc 51c3 453d
00000100: ffd9 71bd ac2e 88bd f483 333d 76b3 14be
00000110: 6369 063e 4f32 0d3e 6a15 813d dbdc a53b
00000120: f738 75be 2821 743d 7630 503e 1fb1 06bb
00000130: 23fe 83bc f630 0d3e ee81 fabd 3263 22bd
00000140: a3dc 373c 1e9d 7cbd d2e9 073e e85f babd
00000150: 2814 68bd 3c01 59be 0304 6abd 2948 173e
00000160: a523 b23c 07a9 f23c 4bbd 4fbd b074 b93e
00000170: 3522 abbe 9f0b a0bd c134 c3bd 9139 143d
00000180: 5ef8 8f3d 09b9 82bd 8438 243e 4b5f bcbd
00000190: f87f c53c 6fb3 2fbd dd31 01bc 9eae 75be
000001a0: 12d9 c8bd 1798 be3d fc05 863d 07c5 32bc
000001b0: 2e56 c43d 1db4 10bd 9929 8dbd e6dd 8ebb
000001c0: 4fee a93d b5b1 91bd a5dd 56bd e2a4 b53d
000001d0: 8629 6ebd b299 81bd 8fec 0fbd effe 1f3d
000001e0: 7d12 e6bc f59d c73d 2364 df3d 160b f03d
000001f0: ddb7 60bd a008 443c 0b04 1dbd 2e85 61bb
00000200: 9aa2 94bd 4590 03bd 11df bc3c 7a71 9dbe
00000210: 1bab 26bd 97ac 063d 0fa8 80be a708 59bd
00000220: 18e9 edbe 4709 1cbf ed7a c9bb 7254 103b
00000230: 59f9 2fbd 18dc 0cbe 5585 173c 09a0 56bd
00000240: 1015 ebbc cbd1 a0bd 5173 0c3e e6e5 883d
00000250: e268 88bd 6f5a 25bc 83ca 00be bb46 ad3d
00000260: a9bc 89bd 1c74 5c3c d262 0cbc 70a6 86be
00000270: 4fec c3be ff99 73bd 6562 3d3c 7170 dc3d
00000280: 340a 4dbd 6e4e fbbd f96e f73d c06b 84be
00000290: de54 fa3b 1517 0ebe 83db 1d3d b0d8 62be
000002a0: 3ec9 5dbd 1d7c 69be 09e4 4fbc a0d9 6d3d
000002b0: ec88 aebd c6eb 92bd 4361 24be f2a6 663e
000002c0: acfd efbc 1dc7 06be f92a 1dbc cd9d d0bd
000002d0: ff98 83bd 855c 3c3c 024e 293d 58e2 a03d
000002e0: 457b e3be c777 a23d d7d8 00be 13e4 a63d
000002f0: caa4 0a3e 5716 193d cd33 a5bd 9e15 433b
00000300: c2bc 8ebc 652e 6c3d 2c0a 0cbd b0cc 97be
00000310: d5c7 2f3e 6929 2f3e 1e42 893b 1e1d 413d
00000320: fb09 2bbe cda3 11bd e8b1 693d ef06 963c
00000330: 1558 1b3c ddff 9ebb 3673 fdbc f729 10bc
00000340: bbea 303d 2572 babc 8a20 e03d 0d82 2e3c
00000350: 7e30 c93d b41c 68bd 8a3a 023e a0ba 353c
00000360: 920c 513c 0bb5 05bd aa79 783c 15aa 9a3d
00000370: a3be 613b 4821 2cbd e015 ad3d a1dc 66bd
00000380: 3916 e4bd e7c3 88bd a76a 04be 7364 73bb
00000390: a98b b6bc b56c 40bd d2e8 c83d d3b2 2ebb
000003a0: 8d05 1c3e 6417 49bc 9c27 833d 0917 903d
000003b0: 87fd cfbc 1446 2c3f 61cc 0abd fbcb 693d
000003c0: fb6e d3bb 5e95 ef3d 4146 093e acd3 823d
000003d0: 9791 afbd 7105 3f3c ec26 cebc ec3d 0cbe
000003e0: 8c79 25be ed76 29bc ea71 c53c b859 45be
000003f0: 23ca 0dbe a3ca 60be a4ac 97bd c7eb 84bc

bias f4 [256]
-0.107596524 0.1399613 0.8047934 0.25478366 0.24904545 0.42430535 0.5166569 0.19022566
0.18210515 0.06286309 -0.24317613 0.28762826 0.2727585 0.15479256 -0.038033206 0.3847679
-0.10384671 0.37703392 0.0123617435 0.020060213 0.00828363 0.37643728 -0.03066008 -0.12208541
0.050168928 0.35287333 0.117593676 0.1323053 0.5773801 0.12775446 0.3779507 0.26821873
0.36738575 0.28912002 -0.32598484 0.37448034 -0.005826146 0.4624923 0.30128336 0.17271265
-0.29852018 -0.3717693 -0.15923083 0.16314152 -0.46140432 0.17851102 0.09249472 0.022584392
0.18127699 -0.042303044 -0.4136707 -0.40401882 0.25536436 0.32361493 0.34766227 -0.23889108
-0.23878975 -0.21939889 0.7085831 0.72230625 0.2975838 0.29262224 0.1823769 0.34788343
-0.037171423 0.24809042 -0.23200946 0.0005571002 0.4161358 0.12244266 -0.31110945 -0.29166988
-0.41059405 -0.2482033 -0.052324913 -0.29226214 -0.1204373 0.09461018 -0.17815556 0.32035056
-0.10638623 0.36262196 0.40072858 0.4088603 0.017689502 0.11441089 -0.036055032 -0.119576715
0.27850038 -0.10172936 0.58113074 0.38800076 0.12494105 -0.11498957 0.17122158 0.2025765
0.11626543 0.21764563 0.08787959 -0.28757438 0.4113646 -0.19585422 0.0077932263 0.08622895
0.16942273 -0.1477085 0.107828364 -0.07099902 0.5696698 0.16526341 -0.23906222 0.4743704
0.2868887 -0.24718317 0.13014163 0.024285164 0.35313168 -0.2693922 0.4807612 0.41957858
0.036752455 0.6287558 -0.42387444 0.16912419 0.54110533 0.24158932 0.4126857 0.06750081
0.2821319 0.31029645 -0.08034449 -0.052823007 0.7340711 -0.05000165 -0.06974115 0.07082454
-0.66255814 0.16758196 0.20743863 0.4323314 0.34606016 0.15593836 0.07096816 0.3937438
-0.13599668 0.056461636 0.6005481 0.42882323 -0.008360526 0.731187 0.34198907 0.0977656
0.28923446 -0.2963131 -0.033471435 0.034175467 -0.015300041 0.43759125 0.28944066 -0.041420434
0.45658496 0.40672845 0.29807866 0.8324038 -0.1897781 -0.11279921 0.48999533 0.07937796
0.28812614 0.57901716 0.285683 0.005941027 0.18833639 0.21160337 -0.60372806 -0.05427697
-0.036979496 0.1902312 0.49553797 0.35692865 0.0619844 0.561644 -0.35050708 -0.2170985
-0.016183121 -0.09456635 -0.122027196 0.6103506 0.20830137 0.3048046 0.1933545 0.13565591
-0.26172426 0.28855386 0.3058456 0.13820091 -0.18693069 0.15088351 -0.117127165 0.11481006
-0.07728182 0.13745089 -0.15361609 -0.33323815 0.25530654 0.23913635 0.43378222 -0.15288323
0.4187044 0.37721378 0.37960303 0.40322432 0.090650454 -0.18636505 0.505928 -0.33921888
0.46288627 -0.16641875 0.09628486 -0.0574657 0.16882294 0.2608483 0.51170933 0.065218
0.055430587 0.4495909 0.14824377 -0.05870324 -0.0832456 0.30873618 -0.18963195 0.23975702
0.28037894 0.041394535 0.29410896 0.3747675 0.008289182 -0.051956043 -0.25394046 -0.061211005
-0.3650597 0.41461536 -0.032346673 0.57473093 0.054603513 0.3708911 -0.3455387 0.39255983
0.17130448 0.51802975 -0.31265306 -0.2550666 0.11659636 0.14403334 -0.39319712 -0.054454356
00000000: 915b dcbd 0452 0f3e f106 4e3f 0173 823e
00000010: c505 7f3e 8d3e d93e a043 043f 84ca 423e
00000020: c679 3a3e 5dbe 803d 2a03 79be 0344 933e
00000030: 01a7 8b3e f181 1e3e b5c8 1bbd 4c00 c53e
00000040: 95ad d4bd 970a c13e e988 4a3c 5155 a43c
00000050: 10b8 073c 63bc c03e d92a fbbc ea07 fabd
00000060: ef7d 4d3d d0ab b43e f4d4 f03d 0a7b 073e
00000070: 2fcf 133f 11d2 023e c182 c13e f753 893e
00000080: fc19 bc3e 8a07 943e 7ce7 a6be e3bb bf3e
00000090: 41e9 bebb cacb ec3e d041 9a3e 96db 303e
000000a0: a3d7 98be 8c58 bebe 680d 23be 920e 273e
000000b0: 303d ecbe 98cb 363e df6d bd3d e702 b93c
000000c0: ada0 393e f545 2dbd a5cc d3be 8edb cebe
000000d0: 1ebf 823e dbb0 a53e ca00 b23e dd9f 74be
000000e0: 4d85 74be 1aaa 60be b465 353f 10e9 383f
000000f0: e75c 983e 95d2 953e 03c1 3a3e c71d b23e
00000100: 1041 18bd 6a0b 7e3e e393 6dbe 5d0a 123a
00000110: c00f d53e 38c3 fa3d bd49 9fbe c155 95be
00000120: 6239 d2be 0229 7ebe a652 56bd 62a3 95be
00000130: d5a7 f6bd fbc2 c13d 696e 36be fd04 a43e
00000140: 06e1 d9bd 96a9 b93e 4c2c cd3e 2356 d13e
00000150: 93e9 903c 4250 ea3d 71ae 13bd a3e4 f4bd
00000160: 9a97 8e3e 7c57 d0bd fcc4 143f 09a8 c63e
00000170: 18e1 ff3d a77f ebbd b654 2f3e 3770 4f3e
00000180: 921c ee3d 7fde 5e3e 37fa b33d f33c 93be
00000190: 619e d23e 028e 48be 525e ff3b ce98 b03d
000001a0: 277d 2d3e e640 17be 1ed5 dc3d ef67 91bd
000001b0: e1d5 113f d03a 293e bacc 74be ade0 f23e
000001c0: 13e3 923e 961d 7dbe d943 053e aef1 c63c
000001d0: adcd b43e c6ed 89be 5526 f63e 01d3 d63e
000001e0: be89 163d 24f6 203f 1206 d9be e42e 2d3e
000001f0: e185 0a3f 3163 773e 8a4b d33e dd3d 8a3d
00000200: 9873 903e 2ddf 9e3e a78b a4bd f05c 58bd
00000210: 15ec 3b3f 88ce 4cbd 73d4 8ebd 750c 913d
00000220: 699d 29bf 9b9a 2b3e cb6a 543e 8b5a dd3e
00000230: cc2e b13e 4eae 1f3e c157 913d ca98 c93e
00000240: b742 0bbe 5144 673d 85bd 193f b88e db3e
00000250: 96fa 08bc 122f 3b3f 3119 af3e 5539 c83d
00000260: 8a16 943e 5ab6 97be 5819 09bd 93fb 0b3d
00000270: 06ad 7abc f60b e03e 9131 943e 79a8 29bd
00000280: 81c5 e93e b63e d03e c49d 983e 6a18 553f
00000290: 3155 42be 4603 e7bd abe0 fa3e e990 a23d
000002a0: 4585 933e 783a 143f 0b45 923e f2ac c23b
000002b0: 41db 403e 8eae 583e ec8d 1abf 8751 5ebd
000002c0: d077 17bd f8cb 423e 27b7 fd3e 5abf b63e
000002d0: 5be3 7d3d e7c7 0f3f aa75 b3be 124f 5ebe
000002e0: 7792 84bc 01ac c1bd 65e9 f9bd f03f 1c3f
000002f0: f44c 553e 590f 9c3e b9fe 453e 62e9 0a3e
00000300: b900 86be 55bd 933e cb97 9c3e 8a84 0d3e
00000310: c26a 3fbe 3581 1a3e 5ee0 efbd 8921 eb3d
00000320: ee45 9ebd edbf 0c3e 894d 1dbe 319e aabe
00000330: 8ab7 823e 29e0 743e b418 de3e 6c8d 1cbe
00000340: 6c60 d63e 2a22 c13e 545b c23e 6b73 ce3e
00000350: f2a6 b93d 7bd6 3ebe 7f84 013f 19ae adbe
00000360: 6eff ec3e ad69 2abe ff30 c53d 2761 6bbd
00000370: ecdf 2c3e e98d 853e 62ff 023f 0491 853d
00000380: 2f0b 633d c730 e63e 37cd 173e cf72 70bd
00000390: ab7c aabd ab12 9e3e e12e 42be dd82 753e
000003a0: d48d 8f3e 518d 293d 7395 963e 87e1 bf3e
000003b0: 59cf 073c dccf 54bd 7c04 82be 64b8 7abd
000003c0: 1be9 babe 7748 d43e f27d 04bd 9121 133f
000003d0: efa7 5f3d 70e5 bd3e 73ea b0be 9afd c83e
000003e0: 716a 2f3e 999d 043f 1014 a0be 1798 82be
000003f0: 13ca ee3d 7a7d 133e 2251 c9be 880b 5fbd

weight f4 [256]
1.0453956 0.9827689 1.0049225 0.8311165 0.538616 0.8931794 1.2654368 1.4789082
0.96426475 0.8681154 0.8994679 0.6724147 0.9563539 1.08122 0.90692437 0.91894484
0.92821836 1.0178425 1.1168826 1.1255863 1.0053283 1.1231897 0.899387 1.034313
1.0477549 0.6014519 1.1330053 0.94296587 0.9826748 0.972153 0.9832301 0.6621489
1.1533241 0.9154413 0.9967687 1.8961366 1.0133379 0.93169796 1.373697 1.0947186
1.0254627 1.0147989 1.5433382 0.80399936 0.9290248 1.3697858 0.69929725 1.1270705
0.6765937 0.89367944 0.815272 0.96055216 1.0397278 1.0235349 1.0383567 0.77421105
1.140399 0.9068852 0.7353447 0.9260279 0.85183585 1.1650296 0.89146775 1.0042812
0.4703251 0.935237 0.74561375 0.9283949 0.76202846 0.84765553 0.88995934 0.79710406
0.7671901 0.9158401 0.6700501 1.0337759 1.0755764 0.7714592 0.7303504 0.941355
0.89026886 1.1408452 0.83637226 0.89225936 0.89593965 1.0783771 0.68040985 0.8229825
1.0709713 1.0261366 1.237308 1.2044072 0.6790591 0.7959995 0.92804307 0.9680291
1.3132024 0.9127949 1.0909585 0.88476086 0.9765391 0.8445478 0.74029356 1.2629913
0.90002525 1.0547836 0.95887846 1.0081096 1.5016884 1.0308262 0.95338994 0.95452446
0.781572 0.73865235 1.0037258 0.9433532 0.7530117 1.0972124 1.0030576 0.8716997
0.91234386 1.6246536 0.901207 0.9766731 0.76144385 1.0109358 0.9731443 0.9673918
1.0882741 1.0036374 1.0181006 0.91640365 1.4033728 1.2864065 1.0749158 1.2470976
0.66678244 1.1252545 1.0411054 1.093489 0.9135332 0.9562971 0.89602876 1.1796765
0.73744917 0.8937893 0.9682174 1.0552275 0.65563697 1.1997374 1.3765111 1.2137102
0.94587576 0.880147 1.114892 0.9466825 0.90673906 1.2813404 0.6477399 1.6287069
1.1128279 0.9355891 0.9956416 0.82965094 0.97982585 0.6753013 1.0041296 0.95946085
1.2671661 0.78296953 0.89249766 0.869427 0.93146425 0.9351273 1.0031329 0.63481593
1.1241512 1.1320148 1.006929 1.0903538 1.2027777 0.9943153 0.97103065 0.9785586
0.6520754 0.925391 0.77337724 1.1054982 1.2169712 1.1276222 0.98610294 1.4954089
0.921061 0.84635 0.979691 1.0088409 1.0029022 1.3485225 0.9598135 0.9635077
0.8101752 0.8700398 0.983381 0.98582625 1.416467 0.9945036 1.118817 1.3357775
1.4018831 0.94152796 0.9274245 1.0895014 1.3461503 0.8170656 0.69057065 1.0132948
1.1154886 0.9884685 0.91447794 1.2448227 0.8271271 0.9553715 1.0100169 0.8783239
0.8799271 1.6048108 0.9236138 1.0844246 1.1532034 1.0235142 1.487706 1.0764383
0.91329944 0.81827575 1.1299509 0.80825984 0.8566168 1.0195677 0.9382261 0.84260744
1.0079325 1.1880273 0.8599555 0.9045934 0.8799264 0.9728664 1.1904696 0.84265995
1.3444227 0.97834826 0.7125715 0.8897133 0.895222 0.82343054 0.8836488 1.0188273
00000000: 86cf 853f be96 7b3f 4da1 803f 0dc4 543f
00000010: bde2 093f 68a7 643f d5f9 a13f dd4c bd3f
00000020: 0eda 763f d03c 5e3f 8743 663f 5f23 2c3f
00000030: 9cd3 743f 6b65 8a3f 322c 683f f83f 6b3f
00000040: b89f 6d3f aa48 823f 02f6 8e3f 3613 903f
00000050: 99ae 803f aec4 8f3f 3a3e 663f 5e64 843f
00000060: d51c 863f c0f8 193f 5106 913f 3666 713f
00000070: 9390 7b3f 05df 783f f8b4 7b3f 9782 293f
00000080: 20a0 933f 5c5a 6a3f 3c2c 7f3f 9bb4 f23f
00000090: 0eb5 813f c283 6e3f 4ed5 af3f bd1f 8c3f
000000a0: 5d42 833f eee4 813f 1b8c c53f e7d2 4d3f
000000b0: 92d4 6d3f 2455 af3f 2505 333f d943 903f
000000c0: 3f35 2d3f 2dc8 643f aab5 503f bfe6 753f
000000d0: cd15 853f 3103 833f dfe8 843f b232 463f
000000e0: 98f8 913f a129 683f 8d3f 3c3f 2a10 6d3f
000000f0: ea11 5a3f b11f 953f 3b37 643f 498c 803f
00000100: 74ce f03e b16b 6f3f 8be0 3e3f 4aab 6d3f
00000110: 4c14 433f f4ff 583f 60d4 633f 030f 4c3f
00000120: 9266 443f 7f74 6a3f 6788 2b3f c552 843f
00000130: 7dac 893f 5a7e 453f 3ef8 3a3f a4fc 703f
00000140: a9e8 633f 3707 923f 7e1c 563f 1c6b 643f
00000150: 4d5c 653f 4308 8a3f 572f 2e3f fbae 523f
00000160: 9615 893f 7258 833f 1c60 9e3f 042a 9a3f
00000170: d1d6 2d3f a0c6 4b3f 3b94 6d3f c1d0 773f
00000180: 0417 a83f edac 693f 87a4 8b3f b07f 623f
00000190: 77fe 793f 4934 583f e183 3d3f b3a9 a13f
000001a0: 0e68 663f 2603 873f 0f79 753f bc09 813f
000001b0: 5337 c03f 1df2 833f 5d11 743f b75b 743f
000001c0: 1a15 483f 5218 3d3f 167a 803f 987f 713f
000001d0: 60c5 403f 7571 8c3f 3164 803f b627 5f3f
000001e0: 5e8f 693f a6f4 cf3f 80b5 663f 4007 7a3f
000001f0: fced 423f 5866 813f fc1f 793f fda6 773f
00000200: 914c 8b3f 3177 803f 1f51 823f 6e99 6a3f
00000210: b8a1 b33f f8a8 a43f d796 893f e5a0 9f3f
00000220: 41b2 2a3f 5708 903f f142 853f 73f7 8b3f
00000230: 50dd 693f e3cf 743f 2462 653f a4ff 963f
00000240: 78c9 3c3f 60cf 643f 18dd 773f b211 873f
00000250: d3d7 273f ff90 993f 8431 b03f db5a 9b3f
00000260: ea24 723f 5051 613f c8b4 8e3f c959 723f
00000270: 0d20 683f f602 a43f 48d2 253f 7879 d03f
00000280: 2571 8e3f c482 6f3f 5ee2 7e3f 0164 543f
00000290: ded5 7a3f 8ce0 2c3f 5287 803f 3a9f 753f
000002a0: 8032 a23f b170 483f ba7a 643f c592 5e3f
000002b0: 7174 6e3f 8164 6f3f a966 803f 4c83 223f
000002c0: 30e4 8f3f dce5 903f 0de3 803f b790 8b3f
000002d0: 9ff4 993f 738b 7e3f 7795 783f d182 7a3f
000002e0: 6aee 263f 6de6 6c3f 0dfc 453f f780 8d3f
000002f0: b6c5 9b3f ed55 903f 3e71 7c3f 8f69 bf3f
00000300: a7ca 6b3f 65aa 583f 08cd 7a3f b321 813f
00000310: 195f 803f 639c ac3f 56b6 753f 71a8 763f
00000320: a467 4f3f eeba 5e3f dbbe 7b3f 1c5f 7c3f
00000330: ca4e b53f ca97 7e3f 6535 8f3f c2fa aa3f
00000340: e870 b33f fa07 713f b16b 6d3f c874 8b3f
00000350: a74e ac3f 362b 513f 3dc9 303f a5b3 813f
00000360: 55c8 8e3f 460c 7d3f 3a1b 6a3f 5a56 9f3f
00000370: 9abe 533f 3a93 743f 3c48 813f d6d9 603f
00000380: e742 613f 716a cd3f f471 6c3f 6dce 8a3f
00000390: 2b9c 933f 8302 833f 266d be3f bbc8 893f
000003a0: fecd 693f 857a 513f 3ba2 903f 1eea 4e3f
000003b0: 3d4b 5b3f 3281 823f 962f 703f 1fb5 573f
000003c0: ef03 813f 4711 983f 0b26 5c3f 6f93 673f
000003d0: db42 613f c60d 793f 4f61 983f 90b8 573f
000003e0: 0b16 ac3f 0875 7a3f 166b 363f 40c4 633f
000003f0: 452d 653f 58cc 523f cf36 623f ef68 823f

bias f4 [256]
-0.32021913 0.03008548 0.06892329 -0.0061111883 0.568042 0.043681633 0.07756008 -0.49758765
-0.34648475 -0.1397803 -0.14141624 -0.042477205 0.018882515 -0.12647799 -0.09564265 0.09750578
-0.026086045 -0.048629634 -0.2137794 -0.00089767185 -0.025586886 -0.27964455 -0.011017462 -0.1273473
-0.10332471 -0.261087 -0.1911374 -0.11986702 0.010609632 -0.33556008 0.07278154 -0.21581659
-0.09403384 -0.1772139 -0.07975511 0.09101549 -0.05162202 -0.09377918 0.008729896 -0.16131319
0.0019444908 0.01793588 -0.11361619 -0.042579632 -0.12693052 -0.3948944 -0.19215848 0.10598598
-0.16940616 -0.113370195 0.26401752 0.013322056 -0.18344018 -0.09985503 -0.186655 0.10584298
-0.3835533 0.056237623 -0.029103614 -0.24832317 0.009113412 0.13839959 -0.14923753 -0.16839096
0.046653036 0.105701596 -0.2569415 -0.07719604 -0.2534312 -0.10040788 -0.1081466 -0.13684036
0.10524269 -0.09306674 0.056244757 -0.062342346 -0.29259527 -0.061061665 -0.28559375 -0.06833952
-0.16285425 -0.14056295 -0.13924627 -0.03264164 -0.020094061 -0.14143766 -0.11794557 -0.14476143
-0.112111256 -0.01788325 -0.019418176 -0.16000287 -0.10523772 -0.24555913 -0.051139925 0.117121994
-0.25986198 0.07335504 0.0024765732 -0.13359573 -0.2506257 -0.1428825 0.057262417 0.14783263
-0.1269701 0.13906556 -0.17894734 -0.12508914 -0.39587343 -0.022638919 -0.081634805 -0.17293261
-0.025270604 -0.06771642 -0.1846962 -0.091018416 0.07428259 -0.31577572 0.007732868 0.015801061
0.010296638 0.31134382 -0.13980709 -0.12976722 -0.19637114 -0.15134202 -0.182851 -0.09273473
-0.10387214 -0.15354374 -0.092504576 -0.08263317 0.08046727 -0.20723803 -0.10535862 -0.20050547
0.073928855 0.032606233 -0.014404294 -0.20148516 0.06180438 0.013357937 0.031160006 -0.123791516
-0.110483885 -0.16796778 0.1633153 -0.08398567 -0.15364686 0.019293802 0.3450827 -0.051764704
-0.17285135 -0.14290628 -0.5110765 0.014394663 0.16147329 0.020985115 0.17767087 -0.033992194
-0.15330547 -0.17540109 -0.21196221 -0.26209497 -0.0547776 -0.2409601 0.011345953 -0.028045285
0.0023258387 0.12565099 -0.041034684 -0.15432471 -0.025389628 0.12988779 0.044132255 -0.09060672
-0.311676 -0.2200053 0.09359009 -0.32436794 -0.21953434 -0.028697854 -0.0864675 -0.25205094
-0.23498322 -0.06587305 -0.27658287 -0.1597025 -0.38414806 0.17200752 -0.10070938 -0.39099085
-0.13414207 -0.5476187 -0.15954238 0.01713964 -0.01625542 -0.2296853 -0.102215245 -0.013676725
-0.08197562 0.004640831 -0.1681058 -0.07033113 0.2132216 -0.16366637 0.2789636 -0.38227057
0.2487626 -0.09351027 -0.21987388 -0.12866873 0.08007466 -0.12918822 0.06860608 -0.17824274
-0.13799602 -0.07772304 0.026404222 -0.10611198 0.18457311 -0.087475985 -0.3221629 -0.17881744
-0.19573142 0.25427097 -0.09251267 -0.23440515 -0.06326436 0.20456764 0.19641602 -0.27461293
-0.0038022588 -0.043995406 -0.071400754 0.105908975 -0.21103384 -0.20073597 -0.09634121 -0.13197581
-0.12596576 -0.14697655 -0.06718996 -0.10985432 -0.16373447 -0.28744137 0.04369417 -0.107459046
-0.10276653 -0.09164981 0.08259932 -0.058404677 -0.047524486 -0.0062806075 -0.14133313 -0.036490686
00000000: c3f3 a3be d375 f63c a727 8d3d 5d40 c8bb
00000010: 336b 113f 83eb 323d d2d7 9e3d cfc3 febe
00000020: 7366 b1be 9122 0fbe 6bcf 10be 94fc 2dbd
00000030: 81af 9a3c 7283 01be 4be0 c3bd 1cb1 c73d
00000040: 67b2 d5bc de2f 47bd fde8 5abe bd51 6bba
00000050: 979b d1bc 922d 8fbe 9682 34bc 5567 02be
00000060: e89b d3bd 32ad 85be 86b9 43be d77c f5bd
00000070: 06d4 2d3c 88ce abbe 7d0e 953d 06ff 5cbe
00000080: d094 c0bd 9077 35be a656 a3bd 5466 ba3d
00000090: 9c71 53bd 4c0f c0bd d607 0f3c 492f 25be
000000a0: 49de fe3a 44ee 923c 9baf e8bd fb67 2ebd
000000b0: 13fa 01be 992f cabe 31c5 44be 2d0f d93d
000000c0: cf78 2dbe a22e e8bd 4e2d 873e c144 5a3c
000000d0: bed7 3bbe cb80 ccbd 7d22 3fbe 34c4 d83d
000000e0: 1961 c4be 6c59 663d b46a eebc 6e48 7ebe
000000f0: 6c50 153c 9fb8 0d3e b9d1 18be ae6e 2cbe
00000100: 4117 3f3d 147a d83d d68d 83be f518 9ebd
00000110: bcc1 81be a6a2 cdbd f77b ddbd e11f 0cbe
00000120: 7b89 d73d c699 bebd e760 663d b05a 7fbd
00000130: 0ccf 95be cc1b 7abd 5839 92be 97f5 8bbd
00000140: 44c3 26be bcef 0fbe 9396 0ebe 3eb3 05bd
00000150: 4d9c a4bc 09d5 10be 728d f1bd 573c 14be
00000160: 969a e5bd e57f 92bc de12 9fbc cbd7 23be
00000170: e086 d7bd da73 7bbe 1978 51bd a8dd ef3d
00000180: a10c 85be 2b3b 963d 014e 223b 52cd 08be
00000190: 0352 80be ca4f 12be ff8b 6a3d 7061 173e
000001a0: 7304 02be 3467 0e3e f93d 37be 5e17 00be
000001b0: ecaf cabe 4175 b9bc 2630 a7bd 3f15 31be
000001c0: 4c04 cfbc e8ae 8abd 0021 3dbe dd67 babd
000001d0: 7821 983d 5bad a1be 0064 fd3b 3a71 813c
000001e0: 3bb3 283c 7568 9f3e 9729 0fbe b3e1 04be
000001f0: 8415 49be 67f9 1abe 4b3d 3bbe b5eb bdbd
00000200: ebba d4bd 923a 1dbe 0a73 bdbd 943b a9bd
00000210: 06cc a43d 3536 54be 43c6 d7bd 4e51 4dbe
00000220: 0368 973d 1d8e 053d fdff 6bbc 2052 4ebe
00000230: 9726 7d3d 40db 5a3c 4543 ff3c 6886 fdbd
00000240: 6045 e2bd bfff 2bbe 203c 273e ae00 acbd
00000250: 9a55 1dbe 090e 9e3c aeae b03e 3a07 54bd
00000260: f2ff 30be 0656 12be e9d5 02bf 98d7 6b3c
00000270: 4159 253e fae8 ab3c 5aef 353e 663b 0bbd
00000280: 1cfc 1cbe 589c 33be 9f0c 59be 5031 86be
00000290: 7a5e 60bd 3fbe 76be 60e4 393c 3abf e5bc
000002a0: 196d 183b a7aa 003e fc13 28bd 4c07 1ebe
000002b0: e9fd cfbc 4e01 053e 06c4 343d 0490 b9bd
000002c0: ff93 9fbe 1249 61be 29ac bf3d 8e13 a6be
000002d0: 9ccd 60be c317 ebbc df15 b1bd d20c 81be
000002e0: 719f 70be 73e8 86bd 459c 8dbe 0d89 23be
000002f0: 0eaf c4be bd22 303e b840 cebd f42f c8be
00000300: 8a5c 09be bd30 0cbf 145f 23be 6e68 8c3c
00000310: 162a 85bc a032 6bbe 3a56 d1bd 5814 60bc
00000320: d5e2 a7bd 1d12 983b ed23 2cbe c409 90bd
00000330: c356 5a3e 2898 27be 51d4 8e3e f8b8 c3be
00000340: 9fbb 7e3e 5082 bfbd 9e26 61be bcc1 03be
00000350: 2ffe a33d eb49 04be 5881 8c3d 4485 36be
00000360: d44e 0dbe 422d 9fbd ab4d d83c 3d51 d9bd
00000370: bc00 3d3e 9c26 b3bd 89f2 a4be eb1b 37be
00000380: d16d 48be ce2f 823e 4877 bdbd e707 70be
00000390: bf90 81bd 2e7a 513e 4821 493e 119a 8cbe
000003a0: 512f 79bb 8734 34bd 8f3a 92bd cee6 d83d
000003b0: 4119 58be bb8d 4dbe 8a4e c5bd ab24 07be
000003c0: 2bfd 00be 0581 16be e49a 89bd 4dfb e0bd
000003d0: 02aa 27be 842b 93be a8f8 323d 7d13 dcbd
000003e0: 4277 d2bd e5b2 bbbd d529 a93d be39 6fbd
000003f0: 09a9 42bd 8ecd cdbb a2b9 10be 4277 15bd

weight f4 [128, 256]
-0.118016765 0.24906011 -0.077065036 -0.12263918 -0.055221062 -0.13248496 0.251665 0.056538533
0.11889443 -0.04884214 -0.34566304 -0.03258286 -0.12064507 -0.28231066 -0.5897969 -0.0057958085
0.08563995 -0.15349065 -0.21596998 -0.20812471 -0.3182171 -0.13514934 -0.50535274 0.014100466
0.06641169 -0.0590914 -0.047411382 -0.037773002 -0.3495858 0.10404748 0.09783066 -0.03490717
0.032747094 0.01138421 0.0029902358 0.030760374 -0.13487975 0.3745573 0.7130997 -0.05745468
-0.057317346 -0.084224835 -0.112792134 -0.1204382 -0.11595913 -0.030230103 -0.6386007 -0.22057112
-0.8009491 -0.0871869 -0.14283073 -0.008315351 0.02549378 -0.093334414 0.07607292 -0.124668434
-0.0649696 -0.2829934 -0.14470914 -0.18404828 -0.07158469 -0.6704363 -0.4415114 0.18853182
0.38234967 -0.16438358 0.14623529 -0.28722432 -0.055667624 0.0024532126 -0.020434232 0.09204248
-0.15679036 0.045699824 -0.03208127 -0.21567269 -0.43853676 0.7051483 -0.3429695 -0.12405934
-0.035847176 -0.022838723 0.040748812 -0.18826973 0.17819968 -0.42687154 -0.76535505 -0.25494558
-0.06130525 -0.20779213 0.43914846 -0.4476563 -0.78917223 -0.29068154 -0.20726077 -0.13948247
0.16293038 0.25087795 -0.031951465 -0.4328629 -0.06550772 -0.38120002 -0.14654657 0.3856519
-0.09545969 -0.14384878 0.06540372 0.0017847852 -0.13963424 -0.15607263 -0.19288233 -0.17685337
-0.008844986 -0.24636914 -0.0713213 -0.20848131 -0.441803 -0.34013602 -0.14867322 -0.0109013375
-0.6116281 -0.034072723 -0.14154819 0.044349536 -0.10431852 -0.19919664 -0.0499333 0.22053994
-0.14876615 0.08420332 -0.053139206 -0.66861635 -0.11600008 -0.16144921 -0.54992497 0.5021521
-0.17964587 -0.7028705 -0.08710114 -0.10639314 -0.04144777 -0.25040182 -0.22038771 0.55810493
-0.22290424 -0.10642004 -0.29201669 -0.0016780882 -0.020585045 -0.17564538 -0.029134963 0.8533157
-0.023740344 -0.21815082 -0.015779415 -0.36038914 -0.11910731 -0.08872165 0.114344835 -0.01876451
-0.2096185 0.041504152 0.20471136 -0.45366517 -0.11562893 -0.63805854 -0.026486112 -0.12845278
-0.0326618 -0.24080324 0.082260005 -0.11146972 0.045115456 -0.025369126 -0.0349102 -0.045124196
0.16737783 -0.1725942 -0.25484183 0.028669203 -0.101396576 0.0041814297 -0.23643534 0.17633443
-0.24623479 0.0046991706 -0.012770927 -0.039667673 -0.008242376 -0.13252576 0.18720746 -0.02621416
-0.18103398 -0.049597755 -0.24038537 -0.16439705 -0.19928727 0.45361122 -0.2469991 -0.06969619
-0.7871859 -0.18717672 0.03985385 -0.13682729 0.05740118 -0.08460926 -0.016026089 0.15946513
-0.05049677 0.013741827 -0.021156851 -0.051897176 -0.1889584 -0.16936876 0.19027855 0.1755609
-0.26051107 -0.2653129 -0.108897135 0.14476107 -0.09688039 0.035136282 -0.060932487 -0.6390626
-0.19576555 -0.16385262 -0.2314116 -0.13170376 -0.08854941 -0.133655 -0.013521218 0.14233866
0.12262216 -0.39778936 -0.068566896 1.1040144 -0.015753727 0.8993362 0.12841317 -0.42801708
-0.19464216 0.8023797 -0.03453499 -0.1471041 -0.3573162 -0.041819043 0.17791551 -0.43411747
0.15986745 0.0054963133 0.056236178 -0.14468257 -0.13343816 0.028936846 -0.14541452 -0.18018207
00000000: c6b2 f1bd 9d09 7f3e 46d4 9dbd 402a fbbd
00000010: 7b2f 62bd 23aa 07be 3cda 803e f394 673d
00000020: ec7e f33d b20e 48bd bffa b0be 9b75 05bd
00000030: c314 f7bd 068b 90be eefc 16bf c4ea bdbb
00000040: 0064 af3d a72c 1dbe 3c27 5dbe a51e 55be
00000050: 5aed a2be 9764 0abe cc5e 01bf a405 673c
00000060: da02 883d d309 72bd 7032 42bd ddb7 1abd
00000070: e9fc b2be d816 d53d 715b c83d d2fa 0ebd
00000080: d121 063d d684 3a3c d5f7 433b 2efd fb3c
00000090: eb1d 0abe f9c5 bf3e b48d 363f 9955 6bbd
000000a0: 98c5 6abd 127e acbd 90ff e6bd 4ea8 f6bd
000000b0: fb7b edbd 1fa5 f7bc 567b 23bf 65dd 61be
000000c0: 000b 4dbf 0c8f b2bd 3842 12be 1c3d 08bc
000000d0: 55d8 d03c 1d26 bfbd 1ecc 9b3d 2a52 ffbd
000000e0: c80e 85bd 83e4 90be a22e 14be 2777 3cbe
000000f0: fe9a 92bd b7a1 2bbf c80d e2be 7c0e 413e
00000100: 56c3 c33e 2b54 28be b4be 153e 110f 93be
00000110: bc03 64bd 14c6 203b b165 a7bc c580 bc3d
00000120: a78d 20be bd2f 3b3d a667 03bd 4dd9 5cbe
00000130: e487 e0be 9984 343f b399 afbe d312 febd
00000140: 7dd4 12bd 4618 bbbc 3ae8 263d c8c9 40be
00000150: fa79 363e e88e dabe 4fee 43bf 3a88 82be
00000160: 371b 7bbd 76c7 54be 11d8 e03e 3533 e5be
00000170: 3107 4abf 36d4 94be 2b3c 54be 7ed4 0ebe
00000180: 39d7 263e 1373 803e 8adf 02bd 35a0 ddbe
00000190: e928 86bd a62c c3be 4e10 16be 2a74 c53e
000001a0: 5f80 c3bd 184d 13be 63f2 853d 74ef e93a
000001b0: 47fc 0ebe 81d1 1fbe f282 45be 0d19 35be
000001c0: 8fea 10bc 3148 7cbe e710 92bd 207c 55be
000001d0: 0134 e2be 4f26 aebe cb3d 18be 869b 32bc
000001e0: a993 1cbf d78f 0bbd 02f2 10be dca7 353d
000001f0: f3a4 d5bd 34fa 4bbe dc86 4cbd 39d5 613e
00000200: 2756 18be ca72 ac3d 7fa8 59bd 712a 2bbf
00000210: 7391 edbd f152 25be e2c7 0cbf 0a8d 003f
00000220: 16f5 37be 52ef 33bf 1562 b2bd a6e4 d9bd
00000230: 23c5 29bd ab34 80be 51ad 61be f7df 0e3f
00000240: 0241 64be c0f2 d9bd 3683 95be 4cf3 dbba
00000250: f8a1 a8bc 62dc 33be 72ac eebc e672 5a3f
00000260: 1c7b c2bc ee62 5fbe d543 81bc ed84 b8be
00000270: 89ee f3bd b2b3 b5bd a02d ea3d 08b8 99bc
00000280: 3ba6 56be 4200 2a3d db9f 513e cd46 e8be
00000290: dcce ecbd ce57 23bf 67f9 d8bc 2089 03be
000002a0: 61c8 05bd 2095 76be ef77 a83d 3d4a e4bd
000002b0: fcca 383d ead2 cfbc fffd 0ebd 26d4 38bd
000002c0: 1865 2b3e 89bc 30be a17a 82be addb ea3c
000002d0: 02a9 cfbd 6004 893b 1b1c 72be 0391 343e
000002e0: f924 7cbe 80fb 993b 263d 51bc 927a 22bd
000002f0: 080b 07bc d5b4 07be 50b3 3f3e 14bf d6bc
00000300: f960 39be 0427 4bbd 9527 76be b357 28be
00000310: f611 4cbe bb3f e83e 55ed 7cbe e0bc 8ebd
00000320: 0485 49bf 41ab 3fbe ca3d 233d 741c 0cbe
00000330: 801d 6b3d 9f47 adbd 2549 83bc d44a 233e
00000340: b3d5 4ebd 6625 613c 2251 adbc 2292 54bd
00000350: 507e 41be 016f 2dbe 61d8 423e 3dc6 333e
00000360: b561 85be 18d7 87be 7605 dfbd 3f3c 143e
00000370: 3a69 c6bd 10eb 0f3d 5894 79bd 9b99 23bf
00000380: c476 48be fbc8 27be 2af7 6cbe 5add 06be
00000390: 6559 b5bd dbdc 08be 1988 5dbc 3ac1 113e
000003a0: 5421 fb3d 0cab cbbe cd6c 8cbd 5850 8d3f
000003b0: f60d 81bc e63a 663f be7e 033e 0e25 dbbe
000003c0: 4650 47be c268 4d3f 9074 0dbd 75a2 16be
000003d0: 26f2 b6be 724a 2bbd 7c2f 363e a544 debe
000003e0: 4bb4 233e 6b1a b43b e857 663d ab27 14be
000003f0: 03a4 08be f70c ed3c 8be7 14be a681 38be

bias f4 [128]
0.0031702453 0.2972941 0.36260253 -0.18388171 0.3899058 0.7103099 0.11311377 0.070487894
-0.2591699 0.29457888 0.12342135 0.24792972 0.1257458 -0.09813981 0.30931675 0.16943607
0.2154255 0.21679012 -0.1637385 -0.21547486 0.5175224 0.31426597 0.26095825 0.014147925
-0.17657812 0.10731524 0.22568962 0.060417 -0.18603635 0.23928156 0.23039323 0.21702911
0.15588403 -0.05106233 -0.04011505 0.07956974 -0.20478791 0.20132278 0.2907591 0.693122
0.18269205 0.13283207 -0.16860132 -0.020731473 0.099250965 0.07254772 -0.013378004 -0.004158355
0.054777093 -0.17715363 0.22207403 0.0046948097 -0.16921027 0.4050237 0.15847194 -0.018868001
-0.14240012 0.053622775 0.43997166 0.07231807 0.44227922 -0.03987559 -0.07854322 0.40508473
-0.28370306 0.27257693 -0.030667767 0.017006638 -0.102580294 0.23921889 -0.087569825 -0.19445774
-0.06879885 0.31504622 -0.06781666 0.20627128 -0.1916694 0.43861037 -0.25656864 0.28000534
0.2645731 -0.5386728 0.17007515 -0.13482463 0.12078756 0.22591771 -0.26184303 0.086083196
-0.14136118 0.17820904 0.11042371 -0.01940547 0.13738678 0.14784406 -0.19402833 -0.08640464
0.40055478 0.043574784 0.2578105 -0.26580587 0.12201868 0.14723119 0.085273094 0.15318646
0.35488117 0.06953755 0.42921394 0.11829134 -0.07930425 -0.16496843 0.04664129 -0.111066245
-0.18607011 -0.32832444 0.11035665 0.541162 0.2505561 0.28051627 -0.01880793 0.27896705
0.28216958 0.27903587 0.40883464 0.12698631 0.05676465 0.016132606 -0.041653834 0.39936087
00000000: e4c3 4f3b ef36 983e 0aa7 b93e 7d4b 3cbe
00000010: bca1 c73e dfd6 353f 31a8 e73d f55b 903d
00000020: ebb1 84be 0bd3 963e 55c4 fc3d 4ae1 7d3e
00000030: 82c3 003e 86fd c8bd c45e 9e3e a680 2d3e
00000040: 8198 5c3e 3bfe 5d3e 11ab 27be 71a5 5cbe
00000050: 597c 043f 78e7 a03e 529c 853e b3cc 673c
00000060: e5d0 34be 18c8 db3d 2e1b 673e d177 773d
00000070: 5080 3ebe 3a06 753e 34ec 6b3e e13c 5e3e
00000080: 10a0 1f3e bc26 51bd ae4f 24bd 76f5 a23d
00000090: ecb3 51be 8f27 4e3e 60de 943e 7270 313f
000000a0: a013 3b3e 2105 083e d3a5 2cbe 0dd5 a9bc
000000b0: 1744 cb3d e693 943d 6a2f 5bbc cf42 88bb
000000c0: f25d 603d c367 35be 6067 633e ebd6 993b
000000d0: 7545 2dbe 445f cf3e 7846 223e 1191 9abc
000000e0: 56d1 11be 8ea3 5b3d f743 e13e 7f1b 943d
000000f0: 6c72 e23e 9654 23bd 45db a0bd 4467 cf3e
00000100: 8741 91be 348f 8b3e f83a fbbc 8151 8b3c
00000110: 9e15 d2bd ccf5 743e cf57 b3bd ee1f 47be
00000120: 69e6 8cbd bd4d a13e 76e3 8abd c738 533e
00000130: fc44 44be 8a91 e03e f75c 83be dc5c 8f3e
00000140: 2076 873e 76e6 09bf 2e28 2e3e 780f 0abe
00000150: 785f f73d f956 673e 4a10 86be 634c b03d
00000160: fcc0 10be 6e7c 363e d325 e23d 38f8 9ebc
00000170: 1faf 0c3e 6f64 173e 5daf 46be eaf4 b0bd
00000180: 8415 cd3e 797b 323d bdff 833e b517 88be
00000190: eee4 f93d c6c3 163e a9a3 ae3d e9dc 1c3e
000001a0: fcb2 b53e b469 8e3d eec1 db3e bb42 f23d
000001b0: 446a a2bd 7ced 28be f00a 3f3d b376 e3bd
000001c0: 2a89 3ebe 241a a8be ab02 e23d 9889 0a3f
000001d0: e448 803e d49f 8f3e 1713 9abc c5d4 8e3e
000001e0: 8878 903e cadd 8e3e c652 d13e b308 023e
000001f0: 0d82 683d 8728 843c 369d 2abd 0779 cc3e

weight f4 [128]
1.000384 1.0148846 0.9238844 1.0159626 0.72974306 0.94821125 0.9085443 0.8674932
0.9911431 0.99935156 0.48912892 0.98664486 0.93661386 0.9748145 0.98745036 0.69576144
0.839118 0.75042665 0.96048856 0.8941558 1.1316178 1.0776055 0.867859 1.0097238
1.0166051 0.96187156 1.2601295 1.003672 0.92589086 0.99376297 0.81957597 1.2528579
0.9801133 0.8372573 0.994125 0.89895177 1.2931324 1.1547301 0.7700931 0.65204984
1.1693035 1.0135827 1.1620378 1.1624795 0.8423407 1.0706204 1.0192561 0.5552619
1.0453283 0.9221336 1.0861468 1.3148205 0.59985024 0.99425477 0.8961918 1.0847499
1.0487484 1.0476211 0.938646 0.795195 0.8105171 0.8150695 1.0069468 0.8931298
0.9260112 0.91323394 0.7461384 0.73656094 1.0610325 0.9756577 0.994006 0.84091854
0.8808523 1.0577877 0.6287334 0.8547118 1.0626225 1.3799939 0.72501564 1.2047386
1.0610265 0.95663285 1.133306 1.0733968 1.0837033 1.3436713 0.94024426 1.2504057
0.8109618 1.3124044 0.83417326 0.8345842 1.1646942 0.9654816 0.9559275 1.0242745
1.6631879 0.9692661 0.91978484 0.9699338 1.2721825 0.82655144 0.6969386 1.0503781
0.9107776 0.9644899 0.99106824 0.92254573 1.0605841 1.1480573 0.9263964 0.9610308
0.9579842 0.92218775 1.0278007 1.1175336 1.3057498 1.1470718 0.9887612 1.0144974
0.81831706 0.97698534 0.76323843 1.0049704 1.4464533 1.0490899 0.7487097 0.92521095
00000000: 950c 803f bde7 813f b083 6c3f 100b 823f
00000010: 71d0 3a3f f9bd 723f 5c96 683f 0914 5e3f
00000020: 8ebb 7d3f 81d5 7f3f 1b6f fa3e c294 7c3f
00000030: edc5 6f3f 718d 793f 8cc9 7c3f 6c1d 323f
00000040: 70d0 563f f61b 403f 94e2 753f 65e7 643f
00000050: dad8 903f faee 893f 022c 5e3f a13e 813f
00000060: 1e20 823f 373d 763f ec4b a13f 5378 803f
00000070: 2f07 6d3f 4067 7e3f bbcf 513f a65d a03f
00000080: b5e8 7a3f 7f56 563f fa7e 7e3f b421 663f
00000090: 5d85 a53f 32ce 933f d224 453f bdec 263f
000000a0: bdab 953f 14bd 813f a8bd 943f 21cc 943f
000000b0: a4a3 573f 170a 893f fc76 823f a525 0e3f
000000c0: 51cd 853f f310 6c3f dc06 8b3f 0a4c a83f
000000d0: c98f 193f 7b87 7e3f d36c 653f 16d9 8a3f
000000e0: 633d 863f 7318 863f 1b4b 703f e691 4b3f
000000f0: 0c7e 4f3f 65a8 503f a2e3 803f 28a4 643f
00000100: 120f 6d3f b3c9 693f ed02 3f3f 428f 3c3f
00000110: eacf 873f b4c4 793f 2d77 7e3f 7046 573f
00000120: 897f 613f 9665 873f acf4 203f 64ce 5a3f
00000130: 0404 883f a4a3 b03f a09a 393f e034 9a3f
00000140: b7cf 873f e4e5 743f 2c10 913f 1165 893f
00000150: cab6 8a3f 6cfd ab3f d9b3 703f 4b0d a03f
00000160: 319b 4f3f defc a73f 618c 553f 4fa7 553f
00000170: b314 953f cd29 773f aab7 743f 6d1b 833f
00000180: 57e3 d43f d321 783f 0577 6b3f 954d 783f
00000190: e0d6 a23f e098 533f 916a 323f ca72 863f
000001a0: b928 693f cfe8 763f a6b6 7d3f f52b 6c3f
000001b0: 38c1 873f 8bf3 923f 5128 6d3f 1d06 763f
000001c0: 743e 753f 7f14 6c3f f98e 833f 570b 8f3f
000001d0: cf22 a73f 40d3 923f 741f 7d3f 0ddb 813f
000001e0: 3a7d 513f b61b 7a3f 9863 433f dfa2 803f
000001f0: 6225 b93f 9448 863f 70ab 3f3f a0da 6c3f
